examples/papertrading_erl_retrain/actor.pth (torch, 214017 bytes, 7 tensors)

action_std_log f4 [1, 30]
0	0x3a4516b7	0.00075183384
1	0xb99fdf2b	-0.00030493116
2	0x39ccb155	0.00039042035
3	0x38c970c7	9.605433e-05
4	0xb8426318	-4.6345493e-05
5	0x39bcb3ed	0.0003599221
6	0x396effb7	0.0002279271
7	0x3a0244d3	0.0004969362
8	0x3a2ed604	0.0006669464
9	0x3a1d4ba0	0.0006000344
10	0x39b6e5ad	0.00034884867
11	0x39ce0dc7	0.00039301647
12	0x3a012825	0.00049269415
13	0x3a0793e5	0.00051718793
14	0x39db469a	0.00041823537
15	0x39508538	0.00019886054
16	0x3a047e8e	0.00050542585
17	0x3a20285c	0.00061095296
18	0x3a1ddf47	0.00060223456
19	0x3a38a24c	0.0007043227
20	0x39d3745c	0.0004033175
21	0x3997cea8	0.00028954935
22	0x39b3ad5c	0.00034270703
23	0x39e9adfb	0.0004457085
24	0x3a21a020	0.0006165523
25	0x39acc884	0.00032955792
26	0x39f9b5af	0.00047628346
27	0x3a13d463	0.0005639253
28	0x39994125	0.0002923097
29	0x3a172c1e	0.0005766767

net.0.weight f4 [128, 333]
0	0x3d1d267a	0.038366772
1	0x3a9ee756	0.0012123387
2	0xbd23c546	-0.039983056
3	0xbcba39bf	-0.022732614
4	0x3cedb889	0.029018657
5	0xbbd34f32	-0.00644865
6	0x3d1d53b6	0.03840991
7	0x3cc2181e	0.02369314
8	0xbcb4d69a	-0.022074986
9	0x3d4bc183	0.049745094
10	0xbd50dc5b	-0.050991397
11	0xbd0b2760	-0.033973098
12	0xbcfb18ae	-0.030651417
13	0x3c12db68	0.008963443
14	0xbce43abf	-0.027860044
15	0x3d5f9749	0.054587636
16	0xbd5807f0	-0.052741945
17	0xbcece2f1	-0.028916808
18	0xbd3e81c9	-0.04651049
19	0x3cc17fa5	0.023620436
20	0x3d5cdd92	0.053922243
21	0xbc810321	-0.015748562
22	0x3c9220c9	0.017837899
23	0xbd254366	-0.04034748
24	0x3d20e5a3	0.0392815
25	0x3bf60a95	0.0075085857
26	0xbb56e783	-0.00327918
27	0x3d12c4cf	0.035832223
28	0x3ccbd7df	0.024883209
29	0x3d0c4be5	0.034252066
30	0xbd148c6e	-0.036266737
31	0x3d58f4fa	0.052968003
32	0xbbaa314d	-0.0051938654
33	0xbca584fa	-0.02020501
34	0xbd1dc3b1	-0.038516704
35	0x3cc4d081	0.024025204
36	0x3cb681ee	0.022278752
37	0x3d0f61d2	0.035005398
38	0xbd183d23	-0.03716768
39	0xbc7c02ad	-0.015381497
40	0x3d3f4c2e	0.04670351
41	0xbcd5a91c	-0.026081614
42	0x3b9eb3c8	0.004843209
43	0x3d1c9e59	0.03823695
44	0x3d013414	0.031543806
45	0xbcb16d47	-0.021658553
46	0x3ade34fc	0.0016953046
47	0x3bdfe559	0.0068327603
48	0x3d204efd	0.03913783
49	0x3d45f4f7	0.04832932
50	0xbcba5cbc	-0.022749297
51	0xbcbef046	-0.02330793
52	0x3d607b2d	0.05480497
53	0x3bd93ae7	0.006629336
54	0x3cf0af39	0.029380428
55	0x3cc85d2e	0.024458494
56	0xbcb1feba	-0.021727908
57	0xbd18ccc5	-0.03730466
58	0xbd4f4927	-0.050606873
59	0xbd2daa3e	-0.042398684
60	0xbc8180a3	-0.01580841
61	0xbd38491f	-0.04499161
62	0x3d34c442	0.04413248
63	0xbd0c0e6a	-0.034193434
64	0x3ceac0e1	0.028656425
65	0x3d0e83e9	0.034793768
66	0x3d2588c1	0.04041362
67	0xbc9f7470	-0.019464701
68	0xbce5371e	-0.027980383
69	0xbd048fa4	-0.03236355
70	0x3d1e8265	0.038698573
71	0xbc67d9d1	-0.014151053
72	0x3d348d6e	0.04408019
73	0x3d3d8526	0.04626956
74	0xbd540548	-0.05176285
75	0x3d54d610	0.05196196
76	0xbc948b0a	-0.018132705
77	0xbcfac0eb	-0.030609569
78	0x3d169ee6	0.03677263
79	0xbc5de076	-0.013542285
80	0xbd3d4686	-0.046209835
81	0xbd038c9f	-0.03211653
82	0xbd0a7cd6	-0.03381046
83	0x3d42c7e1	0.0475539
84	0xbd4baf7b	-0.049727898
85	0x3c62f74c	0.0138529055
86	0x3d3027a4	0.043006554
87	0x3d5c180d	0.053733874
88	0xbd16faf8	-0.036860436
89	0xbd4c3b8a	-0.04986147
90	0xbcf6b37f	-0.030114887
91	0x3c863e0b	0.016387006
92	0xbd242218	-0.040071577
93	0x3d05b149	0.032639775
94	0xbd2d9a0a	-0.04238323
95	0x3d067a9e	0.03283178
96	0x3d6075c9	0.05479983
97	0x3d1aa610	0.037756026
98	0xbcc40966	-0.023930263
99	0x3d53c84d	0.051704694
100	0xba9b909d	-0.001186866
101	0x3cf2adfd	0.02962398
102	0xbd08d840	-0.033409357
103	0xbc198354	-0.00936969
104	0x3d24812e	0.040162258
105	0x3d2dfce5	0.042477507
106	0x3d08506a	0.033279814
107	0x3d219958	0.03945288
108	0x3d4359d4	0.04769309
109	0x3c077aa8	0.00826899
110	0x3c80e72c	0.015735231
111	0xbd4a9c21	-0.049465302
112	0x3d0fd0f7	0.035111394
113	0xbd39d40f	-0.04536825
114	0x3ce45014	0.027870215
115	0xbd41cd72	-0.04731507
116	0xbd10e359	-0.035373066
117	0x3bf77b4e	0.007552541
118	0xbd1acea3	-0.03779472
119	0x3cd4dd09	0.025984304
120	0x3ce011a3	0.02735216
121	0x3d09168e	0.033468775
122	0xbaf73e10	-0.00188631
123	0x3d11262c	0.035436794
124	0x3d371777	0.044700112
125	0x3cfe784c	0.031063221
126	0x3bf64436	0.0075154556
127	0xbad6f3d2	-0.0016399568
128	0x3d041206	0.03224375
129	0xbcf8ab38	-0.030355081
130	0x3c70d8db	0.01470014
131	0xbb57be15	-0.0032919694
132	0xbd35ed94	-0.044416025
133	0xba13b6ab	-0.00056348246
134	0x3d597689	0.05309156
135	0xbd4132a0	-0.04716742
136	0x3b2c6910	0.002630774
137	0xbcbe31fc	-0.023217194
138	0x3d5bd579	0.05367038
139	0x3d5a8595	0.05335005
140	0xbd584f31	-0.052809898
141	0xbd45c00e	-0.04827886
142	0x3d328965	0.04358806
143	0xbd5c0066	-0.053711317
144	0xbb1929cf	-0.0023370867
145	0x3ca6e0c0	0.020370841
146	0xbc9cce15	-0.019141236
147	0xbd592bfc	-0.053020462
148	0x3d202cd3	0.039105248
149	0xbbb577f8	-0.005537983
150	0xbd34c58d	-0.04413371
151	0xbc2b8b6b	-0.010470252
152	0x3d1c2589	0.038121734
153	0xbd19f1e7	-0.03758421
154	0xbcb9e2c0	-0.02269113
155	0x3d2e68f3	0.042580556
156	0xbd58d859	-0.0529407
157	0xbd27a5c6	-0.04092958
158	0xbb6f2f51	-0.0036496709
159	0x3cc910ce	0.024544146
160	0x3d339f34	0.043853
161	0xba72582b	-0.00092447054
162	0x3d36f02b	0.044662636
163	0xbd5d4711	-0.054022852
164	0xbb7e803c	-0.0038833758
165	0x3bc022b1	0.0058635105
166	0x3c9450aa	0.01810487
167	0xbca239a7	-0.019802881
168	0xbd52cf3e	-0.051467173
169	0xbcc704e5	-0.024294326
170	0xbd3b0116	-0.045655333
171	0xbc3dec4f	-0.011591985
172	0x3ac069ef	0.0014680008
173	0x3ccc04ce	0.024904635
174	0xbbdb5448	-0.0066933967
175	0xbd55bd61	-0.05218256
176	0x3d4da28f	0.050203856
177	0xbc3d7cdf	-0.011565416
178	0x3d15dfda	0.036590435
179	0xbd0b0081	-0.033936027
180	0xbcc23dfa	-0.023711193
181	0xbd5f1dc1	-0.054471735
182	0x3d301b90	0.042995036
183	0xbd2e7acd	-0.04259758
184	0xbd5148b5	-0.05109473
185	0xbd52810b	-0.051392596
186	0x3cdcdcc8	0.026960745
187	0x3c9a8bc2	0.01886547
188	0xbb0bd018	-0.002133375
189	0xbd0d6cb7	-0.034527507
190	0xbc8e3ef3	-0.017364
191	0xbaafbde2	-0.001340803
192	0x3be0ed3d	0.0068642185
193	0x3cd7dcc0	0.026350379
194	0x3d11a58a	0.03555826
195	0x3c8487de	0.016178068
196	0xbd4749ad	-0.048654247
197	0x3bb9907d	0.0056629763
198	0x3cd866d9	0.02641623
199	0x3d206a84	0.03916408
200	0x3d090731	0.033454124
201	0xbd2da5b2	-0.042394347
202	0x3d4dcb32	0.05024261
203	0x3c074fee	0.008258803
204	0xbb7fd243	-0.0039035238
205	0x3cd13130	0.02553615
206	0xbca11ee6	-0.019668054
207	0xbba0cfa0	-0.0049075633
208	0x3d06f8b6	0.032952033
209	0x3d59100d	0.052993823
210	0xbc29c3ff	-0.0103616705
211	0x3d4df6a8	0.050284058
212	0xbca39400	-0.019968033
213	0x3d0a8656	0.03381952
214	0x3d0323e4	0.03201665
215	0x3d083613	0.033254694
216	0x3b8ed91f	0.004359379
217	0x3d4d1976	0.05007311
218	0x3ca24196	0.019806664
219	0xbd27535b	-0.04085098
220	0x3d1a95ba	0.037740447
221	0xbc852b78	-0.01625608
222	0x3d0dfc6d	0.03466456
223	0xbd4420a5	-0.047882695
224	0x3d59b907	0.05315497
225	0xbb9864a1	-0.004650668
226	0xbcf8dfc6	-0.030380141
227	0xbd3cce4e	-0.046095185
228	0x3d611e72	0.054960676
229	0x3ca3a97a	0.019978274
230	0xbb5fd30c	-0.0034152893
231	0x3d43d63f	0.047811743
232	0xbd304987	-0.04303887
233	0xbc47d211	-0.01219608
234	0xbd33913c	-0.04383968
235	0xbd568207	-0.052370097
236	0x3c02f27d	0.007992384
237	0x3d2a464e	0.041570954
238	0x3c54ccd0	0.012988284
239	0x3c206f2a	0.009792129
240	0x3ba92477	0.0051618177
241	0xbbdf2489	-0.0068097753
242	0x3c8880b5	0.016662935
243	0xbd3c6336	-0.045993052
244	0x37afa58c	2.0938714e-05
245	0xbc2d71d5	-0.010586222
246	0xbd4b323c	-0.049608454
247	0xbd3b5fc4	-0.045745626
248	0x3d55c0fc	0.052185997
249	0x3cf86b32	0.030324552
250	0x3d5ab4c0	0.053395033
251	0x3cc5842c	0.024110876
252	0xbce0a6f2	-0.027423356
253	0x3c7a61a8	0.015282072
254	0x3d540998	0.05176696
255	0x3d10ff4d	0.035399724

net.0.bias f4 [128]
0	0xbd45989d	-0.048241246
1	0x3d58da6f	0.05294269
2	0x3d4d9ef5	0.05020042
3	0xbd460e5c	-0.048353538
4	0x3966b696	0.00022002528
5	0xbd2da041	-0.04238916
6	0x3c187e46	0.00930745
7	0x3d104148	0.035218507
8	0x3ce21886	0.027599584
9	0x3d2d1c95	0.042263586
10	0x3d2cbf91	0.04217488
11	0x3bc8004b	0.0061035505
12	0xbd1c86a4	-0.03821434
13	0xbd0b9c6e	-0.03408473
14	0xbd2dad46	-0.042401575
15	0xbd436bca	-0.047710218
16	0x3ce07207	0.027398122
17	0xbcb18564	-0.02167005
18	0x3cb691ba	0.022286285
19	0x3d0c6234	0.03427334
20	0xbcab3365	-0.02089853
21	0x3cb9de99	0.02268915
22	0x3ccc5729	0.024943905
23	0xbc953609	-0.018214243
24	0x3cc6db4f	0.024274496
25	0x3d5176a7	0.051138546
26	0xbc9d5b26	-0.019208502
27	0x3d31a7ca	0.043372907
28	0xbcb805a8	-0.022463635
29	0x3b8905bd	0.0041815923
30	0x3cc4f075	0.02404044
31	0xbc8a0a0e	-0.016850498
32	0x3d5b8a50	0.053598702
33	0x3c7bafb7	0.015361718
34	0xbb923b40	-0.0044626296
35	0x3d14c7c0	0.03632331
36	0x3cb23c15	0.021757165
37	0xbb35617a	-0.0027676509
38	0xbc70531f	-0.014668255
39	0xbc5b9594	-0.013402361
40	0xbce05431	-0.027383896
41	0x3bb1e215	0.0054285624
42	0xbd62a492	-0.055332728
43	0x3b909f52	0.0044135237
44	0x3d166bd9	0.036723945
45	0x3cd307a0	0.025760472
46	0x3cac5b1d	0.02103954
47	0xbbaab4db	-0.005209548
48	0x3c18886c	0.009309869
49	0xbb45a206	-0.0030156388
50	0xbc2bb986	-0.010481244
51	0x3c843e0a	0.016142864
52	0x3bfc51b9	0.007700172
53	0xbcf8fee4	-0.030394979
54	0xbb0a8e71	-0.002114203
55	0x3ce650f5	0.028114775
56	0xbd46ebd5	-0.04856475
57	0xbcf7e937	-0.030262573
58	0xba556110	-0.00081397686
59	0xbc310c1a	-0.010806108
60	0x3b63b6fb	0.0034746516
61	0xbcadfc6c	-0.021238528
62	0x3c1f6e74	0.009730924
63	0x3cf30a04	0.029667862
64	0x3b1d5cbe	0.0024011577
65	0x3d58b9bc	0.052911505
66	0x3ccd5e09	0.025069254
67	0xbbda3a7d	-0.0066598044
68	0xbd57ecfd	-0.052716244
69	0x3c18d5ac	0.009328287
70	0xbd533c0e	-0.051570944
71	0x3ce4a8c5	0.027912507
72	0xbd10fbd0	-0.035396397
73	0x3d2a965c	0.0416473
74	0x3ca3e663	0.020007318
75	0x3cb57475	0.022150258
76	0xbd591519	-0.052998636
77	0x3d13508b	0.035965484
78	0x3b8c3dd4	0.0042798314
79	0xbcd8323d	-0.026391143
80	0x3d1c0b8a	0.038096942
81	0x3cbd18f6	0.023083191
82	0x3d05f27e	0.03270196
83	0x3c9fe8d3	0.019520199
84	0x3d2c3821	0.042045716
85	0xbca9e201	-0.02073765
86	0xbc2785ba	-0.010224754
87	0x3d250bd7	0.040294494
88	0xbcb03fe2	-0.021514837
89	0xbc06afad	-0.008220595
90	0x3c969a0d	0.018384004
91	0x3b41ebfd	0.0029590123
92	0xbd5cb849	-0.053886686
93	0x3caee92a	0.021351416
94	0xbcf2b049	-0.029625075
95	0x3d151bc4	0.036403432
96	0x3c2e534e	0.010639979
97	0x3a94a293	0.0011339955
98	0xbc08b7b3	-0.008344579
99	0x3c65f0df	0.014034479
100	0x3c77038c	0.015076529
101	0xbcdce9ae	-0.026966896
102	0xbb5ae13e	-0.0033398415
103	0xbc292e11	-0.0103259245
104	0xbb53d462	-0.0032322635
105	0xbd3e0192	-0.046388216
106	0x3d5d0e74	0.05396886
107	0x3b897ee3	0.0041960343
108	0xbcd1e555	-0.02562205
109	0xbcab7ada	-0.020932604
110	0x3d19892d	0.037484337
111	0x3cb182bb	0.021668782
112	0xbcbed70c	-0.023295902
113	0x3a0c813f	0.00053598353
114	0xbd139964	-0.036034957
115	0xbd02f7df	-0.03197467
116	0x3cd6a638	0.026202306
117	0xbb09fe9a	-0.0021056295
118	0xbd09c7af	-0.0336377
119	0xbb391beb	-0.00282454
120	0xbaa52941	-0.0012600796
121	0xbd36d555	-0.044637043
122	0x3cb75806	0.02238084
123	0x3c87b391	0.016565116
124	0xbc0b148f	-0.008488788
125	0x3d1c04f8	0.038090676
126	0x3bd93b01	0.0066293483
127	0x3c6e3f28	0.014541425

net.2.weight f4 [64, 128]
0	0xbd06be79	-0.032896493
1	0x3d9b23e5	0.07575206
2	0x3d61c386	0.055118106
3	0x3d0b66e5	0.034033675
4	0xbd82bc06	-0.06383519
5	0xbd11ae1d	-0.035566438
6	0x3cea93a3	0.028634852
7	0xbd3b3853	-0.04570801
8	0xbd181ab8	-0.037134856
9	0xbd8a4798	-0.06751937
10	0xbd6bda5f	-0.0575813
11	0xbd7e3bdd	-0.06206881
12	0xbd9e6542	-0.07734157
13	0xbc514af0	-0.012774214
14	0x3da9b4c3	0.08286431
15	0x3cdf4e94	0.027259149
16	0xba807148	-0.0009799385
17	0xbd5c5c75	-0.05379911
18	0x3da1dac6	0.07903056
19	0xbd26c217	-0.040712442
20	0x3d226f35	0.039656837
21	0xbd475d7a	-0.04867313
22	0x3cdf233d	0.027238483
23	0x3d5ecc92	0.054394312
24	0xbae0f97a	-0.0017164194
25	0xbd1440ff	-0.036194798
26	0xbc517a26	-0.01278547
27	0x3d11e99e	0.035623185
28	0x3cce23e9	0.025163608
29	0xbd30830f	-0.043093737
30	0x3d0b14f6	0.033955537
31	0xbd155472	-0.036457486
32	0xbd1e3072	-0.03862042
33	0xbd76fbd5	-0.06029876
34	0xbd74798f	-0.05968624
35	0x3afef106	0.0019450493
36	0xbd222371	-0.03958458
37	0x3d87f262	0.06638028
38	0xbcbe2711	-0.023211988
39	0xbd5b2ce9	-0.053509627
40	0x3d09af1a	0.033614255
41	0x3cc88cac	0.02448114
42	0xbbb2974d	-0.0054501654
43	0xbd00eb98	-0.03147468
44	0x3c55d65e	0.013051597
45	0x3cfe777c	0.031062834
46	0xbd620fed	-0.05519097
47	0xbda6bbcd	-0.08141289
48	0x3c86f6ef	0.016475169
49	0x3d7c4ac5	0.061594743
50	0xbc314f91	-0.010822193
51	0xbc438fcc	-0.011936139
52	0x3a852d38	0.0010160571
53	0x3bd33a95	0.0064461925
54	0xbac688d1	-0.0015146976
55	0x3cd95a5d	0.026532346
56	0x3d52d4fe	0.051472656
57	0x3da64eb5	0.08120481
58	0xbd68a45d	-0.056797374
59	0x3cc51fc7	0.024063004
60	0xbd0b7a8a	-0.03405241
61	0xbc079eab	-0.0082775755
62	0x3d899725	0.06718282
63	0xbc63e1e0	-0.013908833
64	0x3ce65112	0.02811483
65	0xbd96ed4a	-0.07369478
66	0xbd95ddbc	-0.07317683
67	0xbd24412d	-0.04010122
68	0xbd5f1492	-0.054462977
69	0x3d0584e6	0.032597445
70	0x3bb63b96	0.0055613024
71	0xbcf53e75	-0.029937008
72	0xbd79f725	-0.06102671
73	0xbc2eac3a	-0.010661179
74	0x3c5daad3	0.013529497
75	0x3c2b99da	0.010473693
76	0xbda9a944	-0.08284238
77	0x3d81e154	0.06341806
78	0xbd858dfe	-0.065212235
79	0xbda3ffa2	-0.080077425
80	0xbcfe9749	-0.031077998
81	0x3d8a14c6	0.067422435
82	0xbd5502ab	-0.052004497
83	0xbd399127	-0.045304444
84	0x3d547ee8	0.05187884
85	0x3c5ceb70	0.013483867
86	0xbd63802d	-0.05554216
87	0xbd00a906	-0.031411193
88	0xbcb36ae0	-0.021901548
89	0xbd90b4ea	-0.070657566
90	0xbdaa66a5	-0.08320359
91	0x3d7d6c8d	0.0618711
92	0x3d8f46c2	0.06995918
93	0x3d1663bb	0.036716204
94	0x3d3e47d7	0.04645523
95	0xbd4f667e	-0.050634854
96	0xbc3926d9	-0.011300766
97	0x3c08d2c7	0.0083510345
98	0x3d5e804b	0.05432157
99	0x3d95d974	0.073168665
100	0x3b04b697	0.0020250434
101	0xbd8f1e89	-0.06988246
102	0x3cd596b9	0.026072847
103	0xb9d081b1	-0.0003976948
104	0xbc327f62	-0.010894628
105	0x3d898184	0.06714156
106	0x3d7153ae	0.058917694
107	0x3d69491b	0.056954484
108	0x3d82efbb	0.06393381
109	0x3d519214	0.0511647
110	0xbceb76f3	-0.028743243
111	0x3d46be7d	0.048521508
112	0xbce0825c	-0.02740591
113	0x3b5ff951	0.0034175704
114	0x3cfa6c57	0.030569239
115	0x3da9b943	0.08287289
116	0x3d8149dd	0.063129164
117	0x3d93f9ce	0.07225381
118	0xbc19e686	-0.00939334
119	0xbc349099	-0.011020803
120	0xbdb2b58b	-0.08726033
121	0xbc91d3f9	-0.017801272
122	0x3d5c5da9	0.05380026
123	0xbd7bf36d	-0.061511446
124	0x3d8431ab	0.06454786
125	0x3d4b03f5	0.04956432
126	0xbcd38668	-0.025820926
127	0x3c99b602	0.018763546
128	0x3d419ce1	0.047268752
129	0x3d9ae34a	0.07562883
130	0x3d1be7dc	0.038062915
131	0xbd7b0a03	-0.061288845
132	0xbdb022c1	-0.08600379
133	0x3b772fc2	0.0037717675
134	0x3d82b2ce	0.063817605
135	0xbd87b016	-0.066253826
136	0x3da6823f	0.08130311
137	0xbba76dbb	-0.0051095164
138	0x3da60a4f	0.08107435
139	0x3d5324c0	0.05154872
140	0x3cfc92e5	0.030831764
141	0x3d939449	0.072060175
142	0x3d97bafc	0.07408711
143	0x3d755b6e	0.059901647
144	0x3c794019	0.015213036
145	0x3d9fc359	0.078009315
146	0x3c8cc155	0.017182032
147	0x3c56a92f	0.01310186
148	0xbcc7a22a	-0.024369318
149	0xbd15357b	-0.036427956
150	0x3d135567	0.035970118
151	0x3c9ef2a4	0.01940281
152	0x3caf978f	0.021434573
153	0xbd56bfbc	-0.052428946
154	0xbd276e7b	-0.040876847
155	0xbc62b46e	-0.013836963
156	0xbbe2801c	-0.0069122445
157	0x3b0171a6	0.0019751578
158	0xbd39601c	-0.045257673
159	0xbdb0a70b	-0.08625611
160	0x3d41cf50	0.04731685
161	0x3d354d0b	0.044262927
162	0xbc23fadb	-0.010008539
163	0x3d2e1c2e	0.042507343
164	0xbd15a272	-0.036531873
165	0xbda045f3	-0.07825842
166	0xbd604259	-0.054750774
167	0x3c7e2a78	0.015513055
168	0xbcfd7da1	-0.030943694
169	0x3d0310c4	0.03199841
170	0xbd5853d1	-0.05281431
171	0x3bbf086a	0.0058298605
172	0x3ce25637	0.027629001
173	0x3d966200	0.07342911
174	0xbd809601	-0.06278611
175	0x3d701c1f	0.05862057
176	0xbd784dc5	-0.06062104
177	0x3d896b73	0.067099474
178	0x3cf089da	0.029362608
179	0x3aa7682c	0.0012772135
180	0xbd1e5e08	-0.038663894
181	0x3d1f04a7	0.038822796
182	0x3d7d32ec	0.06181614
183	0x3ca2d0b3	0.019874906
184	0x3d2415d0	0.040059865
185	0xbd7a50db	-0.061112266
186	0x3d4ebc94	0.05047281
187	0xbd7f0ddc	-0.062269077
188	0x3d862aa6	0.06551103
189	0x3d34f665	0.044180293
190	0xbc1f305c	-0.00971612
191	0x3d82bcca	0.06383665
192	0xbd2ccda1	-0.04218829
193	0x3d8438a3	0.06456115
194	0xbb351906	-0.0027633323
195	0x3daf4891	0.08558763
196	0x3da54989	0.08070666
197	0x3da47783	0.080306076
198	0x3ca49d2f	0.020094482
199	0x3d74c240	0.059755564
200	0x3d5f89ea	0.054574884
201	0xbc38931b	-0.011265541
202	0x3d5e6400	0.054294586
203	0xbdab37f9	-0.08360285
204	0xbd74f795	-0.059806425
205	0xbd98c792	-0.0745994
206	0x3d838ba7	0.06423121
207	0x3cd732e4	0.026269384
208	0x3ce8b16e	0.028404918
209	0x3d300586	0.042974018
210	0xbac9eaf4	-0.0015405104
211	0x3d17d498	0.03706798
212	0x3d806451	0.06269134
213	0xbcf91602	-0.030406002
214	0x3d4d4fa3	0.050124776
215	0x3d574372	0.052554555
216	0xbdb0f24d	-0.08639965
217	0xbd27e002	-0.040985115
218	0xbd3031ef	-0.04301637
219	0xbdafa480	-0.08576298
220	0xbd8274f8	-0.06369966
221	0x3d2b2e9f	0.04179251
222	0xbda701f1	-0.08154667
223	0x3d20fcb2	0.03930349
224	0xbd3b01b8	-0.045655936
225	0x3d1755fa	0.036947228
226	0xbd849012	-0.06472792
227	0x3d76c732	0.06024856
228	0x3dadf9f8	0.084949434
229	0xbcad9ce9	-0.021192985
230	0xbd6f0fe5	-0.058364768
231	0x3d9aa5c4	0.075511485
232	0xbca15b9c	-0.019697003
233	0xbd86e922	-0.06587435
234	0xbd90ed7b	-0.07076546
235	0x3c434b21	0.011919768
236	0x3db36f49	0.0876146
237	0xbd10f133	-0.035386276
238	0x3cc1b3ff	0.0236454
239	0xbd88ada4	-0.06673744
240	0x3d3e93bb	0.046527606
241	0xbdae5d47	-0.08513885
242	0x3d96e12f	0.07367169
243	0x3d4a65db	0.049413543
244	0x3da0efde	0.07858251
245	0xbcb3a600	-0.02192974
246	0xbd3515e2	-0.044210322
247	0x3d127c4a	0.035763063
248	0x3c051753	0.008123237
249	0x3cbc2e62	0.022971336
250	0xbb9cf031	-0.0047893752
251	0x3d9b513d	0.07583854
252	0xbd20eaee	-0.039286546
253	0x3cb2b64c	0.021815442
254	0xbd74d7c2	-0.059776075
255	0x3c4b173f	0.012395679

net.2.bias f4 [64]
0	0xbd655df2	-0.055997796
1	0x3d1a8cb1	0.03773183
2	0x3d65abc9	0.05607203
3	0x3d58000e	0.052734427
4	0x3da740e5	0.081666745
5	0x3ccca1fd	0.024979586
6	0xbc0c2cd0	-0.008555606
7	0xbd189167	-0.03724804
8	0x3d4c3666	0.049856566
9	0xbd986fa4	-0.07443169
10	0x3c0bafcc	0.0085258
11	0xbdafdcaa	-0.0858701
12	0xbd79bb1f	-0.06096947
13	0x3cca598e	0.024700906
14	0x3d6643ce	0.056217007
15	0x3cfed42a	0.031107027
16	0x3d8ac0b4	0.067750365
17	0x3cb404b8	0.021974906
18	0x3d98f2f0	0.07468212
19	0x3cf1e470	0.029527873
20	0x3c915b5c	0.017743759
21	0x3d8c388d	0.06846724
22	0x3c98e935	0.01866589
23	0xbb7fde2f	-0.0039042344
24	0x3d7673b1	0.060168926
25	0xbce08629	-0.027407723
26	0xbd554701	-0.052069668
27	0x3cbc4c0c	0.02298548
28	0xbc45c382	-0.0120705385
29	0x3d97bf27	0.07409506
30	0xbd5c099e	-0.05372011
31	0xbc078508	-0.008271463
32	0x3b8380d9	0.0040131626
33	0x3d9e574e	0.07731496
34	0xbbbba610	-0.0057265833
35	0x3dafd23d	0.08585022
36	0x3d5b3cfe	0.053524964
37	0x3bf55ab4	0.0074876193
38	0xbcb1d381	-0.021707298
39	0xbd198dfb	-0.03748892
40	0x3d2ce92a	0.04221455
41	0xbcd70556	-0.026247662
42	0x3d8e7b29	0.06957085
43	0x3cb40971	0.021977158
44	0x3d8ed5b4	0.069743544
45	0xbd9f0ca4	-0.07766083
46	0x3db0c089	0.08630473
47	0xbd528a2b	-0.0514013
48	0x3d070c8c	0.03297095
49	0xbd82003a	-0.063476995
50	0x3da2f0ed	0.07956109
51	0x3d643f67	0.055724528
52	0xbd85f2d9	-0.0654046
53	0xbda92deb	-0.08260711
54	0x3bf6c32f	0.007530592
55	0x3ccd1ed0	0.025039107
56	0xbd3224f7	-0.043492284
57	0xbcba5d95	-0.022749702
58	0x3cd03992	0.025418077
59	0x3c9ae70e	0.018909004
60	0xbd786407	-0.06064227
61	0x3ca3a0fb	0.019974222
62	0xbd5a369c	-0.053274736
63	0xbcaa3ba4	-0.020780392

net.4.weight f4 [30, 64]
0	0xbdb2e1d1	-0.08734477
1	0xbdd93bd4	-0.106071144
2	0xbd5854dd	-0.052815307
3	0xbc0e68c2	-0.008691968
4	0x3c9c1449	0.019052641
5	0x3de6865b	0.11256095
6	0xbc28823f	-0.010284959
7	0xbdc831ef	-0.09775149
8	0xbd1779a8	-0.036981255
9	0x3db7f46c	0.08982167
10	0xbc5baf33	-0.01340847
11	0xbbf76998	-0.0075504296
12	0xbdf3e6e4	-0.11909273
13	0x3c945ee5	0.018111655
14	0xbddc8b22	-0.10768725
15	0xbd93f3d7	-0.07224243
16	0xbcaeaea2	-0.021323506
17	0xbdab99b0	-0.08378923
18	0x3dcf4c1b	0.10121938
19	0xbdf4aa16	-0.11946504
20	0xbdf4088c	-0.11915693
21	0x3c78ffd6	0.015197715
22	0xbdd6350f	-0.10459339
23	0xbdd31a04	-0.103076965
24	0x3dc1dc37	0.09465831
25	0x3c82e6e7	0.015979243
26	0x3d90614b	0.07049807
27	0x3d5c314e	0.053757958
28	0x3d9360f0	0.07196224
29	0xbd4bd578	-0.049764127
30	0xbc6387e3	-0.013887378
31	0x3c8d86a8	0.017276123
32	0x3d185c91	0.037197653
33	0x3de8b91c	0.11363432
34	0xbd3a114a	-0.045426644
35	0x3cf777f9	0.030208575
36	0xbde5d798	-0.11222762
37	0x3dd70d6c	0.10500607
38	0xbd8173a4	-0.06320885
39	0xbd9db6f1	-0.07700909
40	0x3c4238c7	0.011854357
41	0xbdf1dfda	-0.118102744
42	0xbdd37a3b	-0.10326048
43	0xbdfc1a37	-0.123096876
44	0xbd0ab007	-0.03385928
45	0xbd85e3b3	-0.06537571
46	0xbd88ec05	-0.06685642
47	0xbd835eec	-0.06414589
48	0xbd325528	-0.043538243
49	0x3dfdef07	0.123991065
50	0xbd9b4f0f	-0.075834386
51	0x3dde090f	0.108415715
52	0x3de9b432	0.11411323
53	0xbd1e3109	-0.038620982
54	0xbd475358	-0.048663467
55	0x3bc1b052	0.0059109116
56	0xbbdffc71	-0.0068355133
57	0xbdb6bab8	-0.089223325
58	0x3d907cd0	0.07055056
59	0xbdb87b3d	-0.09007881
60	0xbdf4c668	-0.119519055
61	0x3c511882	0.012762191
62	0x3d422d1f	0.047406312
63	0xbd62c2a1	-0.055361394
64	0x3d07b657	0.033132877
65	0x3db48657	0.08814686
66	0x3daa3d33	0.08312454
67	0xbda58e47	-0.08083778
68	0xbded7b30	-0.11595762
69	0x3e0085ee	0.1255109
70	0xbc7e9510	-0.015538469
71	0xbd99f29c	-0.07516977
72	0x3ba52790	0.0050401166
73	0xbd121a4c	-0.03566961
74	0xbc473e91	-0.012160913
75	0x3dcc5fb8	0.099791944
76	0x3dc0a58c	0.094065756
77	0xbdf317c0	-0.11869764
78	0x3d7c9958	0.061669677
79	0xbda0930d	-0.07840548
80	0x3d8b1c34	0.06792489
81	0xbc905a89	-0.017621296
82	0xbd6e1f04	-0.058135048
83	0xbd598f53	-0.0531152
84	0x3cdbd6bf	0.026835797
85	0x3d86e20a	0.06586082
86	0x3ca34320	0.019929469
87	0xbd87aa22	-0.06624247
88	0xbd7d2d4d	-0.06181078
89	0xbdedbde0	-0.116084814
90	0xbd444249	-0.047914777
91	0x3d6a3f10	0.057189047
92	0xbcefa459	-0.029253172
93	0xbdf6903c	-0.12039229
94	0x3dd629ca	0.104571894
95	0x3de74e32	0.112942114
96	0xbd9e8c6f	-0.07741629
97	0x3dccf193	0.10007014
98	0xbc87edfa	-0.016592968
99	0x3cbec5f8	0.023287758
100	0x3debd7d8	0.11515778
101	0xbc4fa360	-0.012673229
102	0xbdf0829d	-0.117436625
103	0xbd71eba7	-0.059062626
104	0xbcd46d4f	-0.025931029
105	0x3da2caf8	0.079488695
106	0x3d8f6b34	0.07002869
107	0xbcb43042	-0.021995667
108	0x3cabd8f4	0.020977475
109	0x3d98a84e	0.074539766
110	0x3dad794b	0.084704004
111	0x3d8f3a89	0.069935866
112	0x3ce3adce	0.027792837
113	0xbba77b38	-0.0051111244
114	0x3da50a25	0.080585755
115	0xbdf32e24	-0.11874035
116	0xbdedb838	-0.116074026
117	0x3dd3c1fa	0.103397325
118	0x3c6572ea	0.014004448
119	0x3d1ee659	0.038793895
120	0xbde503e4	-0.11182383
121	0xbd93524d	-0.07193432
122	0xbc451bbc	-0.012030538
123	0xbdde9f9d	-0.108702876
124	0x3ced3b8b	0.028959056
125	0xbd8faadf	-0.07015013
126	0xbd9f5fc0	-0.07781935
127	0xbcc4e8fc	-0.024036877
128	0x3c180123	0.009277615
129	0x3d263cd8	0.04058537
130	0xbbe0614e	-0.006847537
131	0x3cc851e6	0.024453115
132	0x3bb3dabd	0.005488722
133	0xbd5a70e3	-0.053330313
134	0x3dc86d30	0.09786451
135	0xbda634ba	-0.081155255
136	0xbde98696	-0.11402623
137	0x3d8228dd	0.0635545
138	0xbdfbd275	-0.12296001
139	0x3ddc2f92	0.10751261
140	0x3ddea18c	0.10870656
141	0x3dae220b	0.08502587
142	0xbd858e02	-0.065212265
143	0xbd2ce411	-0.04220969
144	0x3d23e6c5	0.040015
145	0xbd98b021	-0.07455469
146	0xbc99f04d	-0.018791342
147	0x3df1077a	0.11769004
148	0x3ca549c6	0.02017678
149	0xbdc5864d	-0.096447565
150	0xbce96eef	-0.02849528
151	0xbd6d4a5e	-0.05793225
152	0x3dfdba89	0.123890944
153	0x3d894175	0.06701938
154	0x3d0efd72	0.034909673
155	0xbd867385	-0.06565002
156	0xbc39b163	-0.011333796
157	0xbd5fa268	-0.054598242
158	0xbdb42bc7	-0.08797412
159	0x3dccaab0	0.099934936
160	0x3d9ae4d1	0.075631745
161	0x3d239257	0.039934482
162	0xbc9680a7	-0.018371893
163	0xbcb688ac	-0.022281967
164	0x3d3a4208	0.04547313
165	0xbdcfde4c	-0.10149822
166	0xbcb66af5	-0.022267798
167	0xbd10993f	-0.035302397
168	0xbcc80b06	-0.024419319
169	0x3b485ec9	0.0030574074
170	0xbdf2f7a2	-0.118636385
171	0x3dec4534	0.11536637
172	0xbd3866de	-0.045019977
173	0xbdbb0198	-0.09131163
174	0x3c601eb0	0.0136791915
175	0xbdeccf08	-0.115629256
176	0xbd864a0c	-0.06557092
177	0xbc7f80e5	-0.015594696
178	0xbdffb7f5	-0.12486259
179	0xbdb00cb5	-0.08596174
180	0x3dbc3038	0.091888845
181	0x3cfff481	0.031244518
182	0x3cc1c29b	0.023652365
183	0x3ddfff11	0.10937322
184	0x3dc5c401	0.096565254
185	0x3c3498bc	0.011022743
186	0x3ca7ec20	0.020498335
187	0x3dedc58b	0.11609944
188	0x3d218141	0.039429907
189	0x3dbbd182	0.0917082
190	0xbd03a76b	-0.032142084
191	0x3ca273fa	0.019830693
192	0xbd4cb607	-0.049978282
193	0x3dc1a468	0.09455186
194	0x3d24bfc3	0.04022194
195	0x3ddaa12a	0.10675271
196	0xbd8f52d0	-0.06998217
197	0x3decbc59	0.11559362
198	0x3ca9d4d4	0.020731367
199	0x3d1cf146	0.038316034
200	0xbd046dc5	-0.032331247
201	0x3c7b876a	0.015352109
202	0xbd7a2693	-0.061071943
203	0xbcafd982	-0.02146602
204	0x3d15b5ef	0.03655046
205	0xbd4a177e	-0.04933881
206	0x3dea7b1c	0.114492625
207	0xbd42e228	-0.04757896
208	0x3dccc5ac	0.099986404
209	0x3dadcf4f	0.084868066
210	0xbd0d87c0	-0.03455329
211	0xbdc7d077	-0.097565584
212	0xbd14fbb9	-0.036372874
213	0x3de43202	0.11142351
214	0x3d391722	0.045188077
215	0xbb36ea23	-0.0027910552
216	0xbcd9b6c4	-0.026576407
217	0x3dfbffa1	0.12304617
218	0x3d074fcf	0.033035096
219	0xbda3786d	-0.07981954
220	0xbae5f2b4	-0.0017543645
221	0x3d3d4830	0.04621142
222	0xbd309257	-0.04310831
223	0xbdecfd22	-0.11571719
224	0x3bd1a993	0.0063983887
225	0xbdfdad65	-0.12386588
226	0x3db73618	0.089458644
227	0x3d05597b	0.03255604
228	0xbdf2f4ae	-0.11863075
229	0xbd5d60f5	-0.054047544
230	0x3cd0c0d2	0.025482569
231	0xbd5c7412	-0.05382163
232	0x3dec2b9a	0.11531754
233	0xbccc6015	-0.02494816
234	0xbdfb2a9f	-0.12263989
235	0x3ddc6f11	0.10763372
236	0x3dd405a9	0.10352642
237	0x3c82281c	0.015888266
238	0xbd730304	-0.059329048
239	0x3d1aa187	0.0377517
240	0xbd14cab3	-0.03632612
241	0x3d8ccd96	0.0687515
242	0x3d81bde7	0.06335049
243	0xbcdba2bc	-0.026810996
244	0xbd992343	-0.07477429
245	0x3dd92367	0.106024556
246	0xbdbdbcd9	-0.092645355
247	0x3dcc27b8	0.09968513
248	0xbc407266	-0.011746025
249	0x3d9fa60c	0.07795343
250	0xbd39d77d	-0.04537152
251	0xbde09b57	-0.10967129
252	0xbd750a35	-0.059824187
253	0x3dbd1685	0.09232811
254	0xbdf0a36f	-0.117499225
255	0xbd4fd748	-0.050742418

net.4.bias f4 [30]
0	0x3d9e57d2	0.07731594
1	0x3deb0975	0.11476413
2	0x3dfd5c82	0.1237116
3	0x3df976a5	0.12180833
4	0xbc596ca6	-0.013270533
5	0xbd963955	-0.07335154
6	0xbdadcee2	-0.084867254
7	0xbdb895c4	-0.090129405
8	0xbd6da576	-0.058019124
9	0xbc4c111f	-0.012455254
10	0xbdbdc171	-0.09265412
11	0xbda5f262	-0.081028715
12	0x3da5dadd	0.080983855
13	0xbddcbdcc	-0.107783884
14	0x3d96b58a	0.073588446
15	0x3d996c36	0.07491343
16	0x3dc6feb9	0.09716553
17	0x3d17525e	0.036943786
18	0xbcaf36f4	-0.021388508
19	0x3bb974cc	0.005659675
20	0xbd245428	-0.04011932
21	0xbb9812c8	-0.004640911
22	0x3d93568d	0.071942426
23	0x3d5133b3	0.051074695
24	0x3dabf6c1	0.08396674
25	0xbd3b54e8	-0.04573527
26	0x3d8cf861	0.06883312
27	0x3b15115f	0.002274595
28	0x3d69f629	0.057119522
29	0xbd279d9b	-0.04092179
