examples/papertrading_erl/actor.pth (torch, 214017 bytes, 7 tensors)

action_std_log f4 [1, 30]
0	0x3a18e640	0.000583265
1	0x3acb26c2	0.0015499222
2	0x3b2d4e07	0.0026444213
3	0x3b291e41	0.0025805386
4	0x3b135899	0.0022483228
5	0x3b0411a4	0.0020152116
6	0x3b4a5b88	0.003087731
7	0x3b1b22ab	0.0023671787
8	0x3b129056	0.0022363863
9	0x3b2f58c0	0.002675578
10	0x3b12b3ed	0.0022385076
11	0x3b0d901d	0.002160079
12	0x3b0911eb	0.002091522
13	0x3b10f027	0.0022115798
14	0x3afdc4bd	0.0019361001
15	0x3b17ed70	0.0023182295
16	0x3b14711f	0.0022650433
17	0x3af66690	0.0018798877
18	0x3b00de16	0.0019663624
19	0x3b021899	0.0019851087
20	0x3b150583	0.002273888
21	0x3af6fe25	0.0018844052
22	0x3ad25acb	0.0016048787
23	0x3b25d2a3	0.0025302551
24	0x3b1d4a6e	0.0024000662
25	0x3b282dea	0.0025662133
26	0x3adf9b7e	0.001705989
27	0x3b0f8a0c	0.002190235
28	0x3b3db0eb	0.0028944563
29	0x3b200ce6	0.002442175

net.0.weight f4 [128, 333]
0	0x3a23aab7	0.0006243395
1	0x3cb8d894	0.02256421
2	0x3d39c32a	0.04535214
3	0x3c9adde1	0.018904628
4	0x3d38494b	0.044991773
5	0x3d5e4558	0.05426535
6	0x3ccb5727	0.02482183
7	0xbd529ef4	-0.05142112
8	0x3c4aa284	0.012367848
9	0x3bcfb430	0.0063386187
10	0xbce307d9	-0.027713703
11	0x3cbaade6	0.022788
12	0xbcf3bb3b	-0.029752364
13	0xbb85237b	-0.0040630675
14	0xbcbeb695	-0.023280421
15	0x3bfebce6	0.0077739833
16	0xbd2ee357	-0.042697277
17	0xbc5e9cb6	-0.0135871675
18	0xbbf84f16	-0.007577787
19	0x3b3f26f4	0.0029167505
20	0x3d36b225	0.044603486
21	0xbc84e0bd	-0.016220445
22	0xbd47522d	-0.048662353
23	0x3d1f2a03	0.038858425
24	0x3c9bc2a8	0.019013718
25	0xbd3aa69d	-0.04556905
26	0xbd0f7e31	-0.035032455
27	0x3beebd9a	0.007285786
28	0xbb436c41	-0.0029819163
29	0xbb48be72	-0.0030631092
30	0x3d0e1e6a	0.034696974
31	0x3d3067fa	0.04306791
32	0x3d165389	0.03670076
33	0x3d11ecc5	0.03562619
34	0x3cbbb282	0.022912268
35	0xbd3978a6	-0.045281075
36	0xbc228aaa	-0.009920755
37	0xbd2e9a10	-0.042627394
38	0xbce464c7	-0.027880086
39	0xbd4fc24e	-0.050722413
40	0x3b514aba	0.003193541
41	0x3a871aba	0.0010307648
42	0xbd59c383	-0.05316497
43	0x3cc6ffbf	0.024291871
44	0x3c54aef7	0.012981168
45	0xbd184432	-0.03717441
46	0x3cba940e	0.022775676
47	0xbcab1554	-0.020884193
48	0x3c9e6e04	0.019339569
49	0x3ce7f11a	0.028313208
50	0xbce9d742	-0.028545026
51	0xbd18e97c	-0.037332043
52	0x3c875c23	0.016523426
53	0x3ceb253f	0.028704284
54	0x3c19737e	0.009365914
55	0xbc8a971e	-0.016917761
56	0x3aa69911	0.0012710412
57	0xbcd69f13	-0.0261989
58	0x3cb51d39	0.022108661
59	0xbaee14ea	-0.0018164192
60	0x3d048145	0.032349844
61	0x3d4c68e7	0.04990473
62	0x3c68653b	0.0141842915
63	0x3d1a803e	0.037719958
64	0xbd179e84	-0.037016407
65	0x3d509add	0.05092894
66	0x3ce19282	0.02753568
67	0x3d0a4217	0.033754434
68	0xbcc9a356	-0.024614017
69	0xbcfdb86d	-0.03097173
70	0xbcb6b3f5	-0.022302607
71	0x3c001207	0.007816798
72	0x3d39b856	0.045341812
73	0x3cfa03b1	0.030519338
74	0x3c81c22f	0.015839664
75	0x3caffd10	0.021482974
76	0x3cf12617	0.029437108
77	0x3d61d739	0.055136893
78	0xbd008fba	-0.03138707
79	0x3c49df9b	0.012321378
80	0x3d5dc781	0.05414534
81	0x3d14b578	0.036305875
82	0x3a81d635	0.0009905758
83	0xbb1ed8b9	-0.0024238063
84	0xbc5b3a0f	-0.0133805415
85	0xbd44613b	-0.04794429
86	0x3ce644a7	0.028108908
87	0x3bd99a3e	0.0066407016
88	0x3d52120a	0.051286735
89	0xbd397d50	-0.045285523
90	0x3d24ae28	0.04020515
91	0xbb757f14	-0.0037459778
92	0x3d4895d7	0.048971023
93	0xbd466cad	-0.048443485
94	0xbd134198	-0.035951227
95	0x3b5c8037	0.0033645758
96	0xbd0bc98e	-0.034127764
97	0x3cd4b9ca	0.025967497
98	0xbd5852ab	-0.052813213
99	0xbd387971	-0.04503769
100	0x3d5853b7	0.05281421
101	0xbc2737a6	-0.010206139
102	0xbc52efa1	-0.012874515
103	0x3d46e770	0.04856056
104	0xbc61f061	-0.013790221
105	0xbc9813f2	-0.018564198
106	0x3c3b7c17	0.01144316
107	0xbc9d4c2a	-0.019201357
108	0x3cc1ecdf	0.02367252
109	0xbcba2adb	-0.022725513
110	0xbc4d0644	-0.012513701
111	0x3ccd7994	0.025082387
112	0xbd42ea96	-0.047587
113	0x3c004c75	0.007830729
114	0x3d36e263	0.044649493
115	0xbd113db3	-0.03545923
116	0xba0d6dbe	-0.0005395076
117	0x3d0736a4	0.033011094
118	0x3d3d9610	0.04628569
119	0xbd119396	-0.03554114
120	0x3cf15014	0.02945713
121	0x3c9a41b6	0.018830162
122	0xba5a3eeb	-0.00083254155
123	0xbd52f1c7	-0.051500108
124	0xbd30675c	-0.04306732
125	0xbcee2027	-0.029068066
126	0x3d4f180e	0.05056005
127	0xbca5985c	-0.020214252
128	0xb99ad28f	-0.00029530047
129	0x3d347694	0.044058397
130	0xbd05f793	-0.03270681
131	0x3cbf72e2	0.02337021
132	0xbcc5cb0f	-0.024144677
133	0xbcc545e0	-0.02408117
134	0xbd3afed8	-0.045653194
135	0xbd329cf3	-0.04360671
136	0x3cb18fdf	0.021675048
137	0x3d5d01b7	0.053956714
138	0x3c717ca4	0.014739189
139	0x3c60c5c0	0.013719022
140	0xbd3751b2	-0.044755645
141	0xbd4449b5	-0.047921855
142	0xbcd02dfd	-0.025412554
143	0x3d5f51ba	0.0545213
144	0x3cf4a929	0.029865818
145	0x3c66541b	0.014058138
146	0x3d48f9f2	0.04906649
147	0xbd2fa6e6	-0.042883776
148	0xbd295612	-0.04134185
149	0xbc77beaf	-0.015121146
150	0x3c878023	0.016540593
151	0xbd518d62	-0.051160224
152	0x3ceeb961	0.02914113
153	0x3d0f7987	0.035028007
154	0x3cec006d	0.028808797
155	0x3cd08268	0.025452808
156	0x3ba87b93	0.0051416843
157	0xbc75290f	-0.014963402
158	0x3cd7b340	0.02633059
159	0xbd3e96e2	-0.04653061
160	0xbd4268cc	-0.047463223
161	0xbd2475c8	-0.040151387
162	0xbcf59164	-0.029976554
163	0x3c89b12a	0.016808111
164	0x3cc3dc4f	0.023908762
165	0x3b96a32a	0.0045970874
166	0xbcff20bd	-0.03114354
167	0xbc85ffa2	-0.016357247
168	0x3d1edfee	0.038787775
169	0xbc69cf2f	-0.014270588
170	0xbd45f9a8	-0.048333794
171	0xbc8b1ef1	-0.016982527
172	0xbd228909	-0.03968147
173	0x3d438fcf	0.04774457
174	0x3d40d3fd	0.047077168
175	0x3a6fceb9	0.00091479305
176	0xbadadc67	-0.0016697765
177	0xbcdf9d2a	-0.027296621
178	0xbd10f5be	-0.035390608
179	0x3d208644	0.039190546
180	0x3b2e6e51	0.0026616047
181	0x3d1af8ba	0.03783486
182	0xbcab8968	-0.020939544
183	0xbcc81914	-0.02442602
184	0x3ccdc87a	0.025120009
185	0xbd360ff8	-0.044448823
186	0x3d48b1db	0.04899774
187	0xbc4255e3	-0.011861297
188	0xbb7ec5f7	-0.003887532
189	0x3d297578	0.041371793
190	0xbd113a2f	-0.03545588
191	0x3d12897b	0.035775643
192	0xbd2281a9	-0.039674435
193	0xbc13e1ea	-0.00902603
194	0xbd35a5e0	-0.044347644
195	0xbcd20c01	-0.02564049
196	0xbca8b447	-0.020593775
197	0x3c913800	0.017726898
198	0x3ccf292d	0.025288189
199	0x3ca23768	0.01980181
200	0x3d42d2c1	0.04756427
201	0x3b7eca66	0.0038877963
202	0xbd004568	-0.03131619
203	0x3cabfe40	0.02099526
204	0x3c59ffcc	0.013305616
205	0xbbb7c558	-0.005608242
206	0x3d0826b8	0.03324005
207	0x3d4ff30b	0.050768893
208	0xbd3076f8	-0.043082207
209	0x3c854d58	0.016272232
210	0x3cbcdb7d	0.023053879
211	0xbd0d4215	-0.03448685
212	0xbcccf610	-0.025019675
213	0xbd3fe317	-0.04684743
214	0x3c729b28	0.0148075
215	0x3b051591	0.0020307044
216	0xbc4ff872	-0.012693511
217	0xbd2a41c0	-0.04156661
218	0xbd0bada5	-0.034101147
219	0x3d3d743f	0.04625344
220	0x3d4b5d69	0.04964963
221	0x3c6af2ea	0.014340142
222	0x3c9c1ca4	0.019056626
223	0x3d58f636	0.05296918
224	0xbd088cce	-0.033337407
225	0x3d11ec43	0.035625707
226	0x3d43cdf7	0.047803845
227	0xbcddc3e9	-0.027070956
228	0x3d1b1a76	0.037867032
229	0x3b4a9487	0.0030911283
230	0x3d17fbd7	0.037105408
231	0xbcc686c4	-0.024234183
232	0x3d24453b	0.040105086
233	0x3c3bf0aa	0.011470953
234	0xbc88b3c8	-0.016687289
235	0x3d56a7cf	0.05240613
236	0x3b7ae251	0.0038281868
237	0x3d4c31a3	0.049852025
238	0x3cb3d962	0.021954242
239	0x3cadac71	0.02120039
240	0xbbb024ff	-0.005375504
241	0x3cd996ce	0.026561167
242	0x3d5ab8b2	0.053398795
243	0xbcdf98e6	-0.027294587
244	0x3cdc0bf6	0.026861172
245	0x3d05cd52	0.03266651
246	0xbcbb3042	-0.02285016
247	0xbc5392d0	-0.012913421
248	0xbd0a6a5f	-0.03379285
249	0xbc854a04	-0.016270645
250	0xbca3a9ff	-0.019978521
251	0xbd4f706c	-0.050644323
252	0xbc40fdac	-0.01177923
253	0x3cdb6dce	0.026785757
254	0x3b68410f	0.0035439169
255	0xbbfd4378	-0.00772899

net.0.bias f4 [128]
0	0xbc7b8fe4	-0.01535413
1	0x3d3d2010	0.046173155
2	0x3bdd431f	0.006752386
3	0xbc3b0e3f	-0.011416971
4	0xbd3fe964	-0.046853438
5	0xbc682b14	-0.014170427
6	0xbb26d731	-0.0025457854
7	0xbceb0c2e	-0.028692331
8	0x3cf218b6	0.029552799
9	0xbb2af4c0	-0.0026085824
10	0xbb7fd28f	-0.0039035415
11	0x3d07f679	0.03319404
12	0xbcaf6b1e	-0.021413382
13	0x3cf1d873	0.029522156
14	0xbba4e166	-0.0050317524
15	0xbc64250d	-0.013924849
16	0xbd01aab5	-0.03165694
17	0x3d4ecd43	0.05048872
18	0x3cf63d95	0.030058661
19	0x3d5175d0	0.051137745
20	0xbcb1344c	-0.021631382
21	0x3a3ced71	0.00072070124
22	0xbd05f51c	-0.032704458
23	0xbd50107d	-0.050796974
24	0x3d5bdd29	0.05367771
25	0xbc9c7c63	-0.019102281
26	0xbd3b3845	-0.04570796
27	0x3cdbbd4c	0.026823662
28	0x3d45750a	0.04820732
29	0x3d1e9e65	0.038725276
30	0xbb8fadaa	-0.004384716
31	0x3c8f63b8	0.017503604
32	0x3c1dbf17	0.009628079
33	0xbd346298	-0.04403934
34	0xbc83532d	-0.016030872
35	0xbce665bc	-0.028124683
36	0x3d2deb96	0.042461
37	0x3ceca98b	0.028889438
38	0xbca03e82	-0.019561056
39	0x3d2b1f13	0.04177768
40	0xbd22f2da	-0.039782383
41	0xbd062d35	-0.032757957
42	0x3d5f8582	0.054570682
43	0xbd3b9707	-0.045798328
44	0xba79af7c	-0.00095247454
45	0xbba67897	-0.0050802934
46	0x3d542a8c	0.05179839
47	0x3d100167	0.035157587
48	0xbca251e8	-0.019814447
49	0xbd0128e8	-0.031533152
50	0x3d3c0910	0.04590708
51	0xbc589063	-0.013218018
52	0x3c3103f5	0.010804166
53	0x3d549a0a	0.051904716
54	0xbc909b64	-0.017652221
55	0xbc8c9e2e	-0.01716527
56	0x3cbc1187	0.022957576
57	0x3bd2fefc	0.006439088
58	0xbd10dfda	-0.03536973
59	0xbc9da27f	-0.019242523
60	0x3c828282	0.015931372
61	0x3cfb8324	0.030702181
62	0xbcdd16c3	-0.026988393
63	0xbcfdb0e3	-0.030968135
64	0xbaed2413	-0.0018092416
65	0xb9b2aa90	-0.00034077885
66	0xbbe9a7f6	-0.007130618
67	0xbc28fc23	-0.01031402
68	0xbd483a0a	-0.048883475
69	0xb978724f	-0.00023693706
70	0xbd5de8e8	-0.054177195
71	0xbccf6743	-0.025317794
72	0x3d408fd7	0.047012176
73	0x3c7f0de8	0.01556728
74	0xbb0d1593	-0.0021527752
75	0xbc8e19a0	-0.017346203
76	0x3ceaeac1	0.028676393
77	0x3caefb5a	0.021360088
78	0xbd10973c	-0.03530048
79	0xbd504530	-0.050847232
80	0x3ccf0950	0.025272995
81	0xbc614d2b	-0.013751308
82	0xbcaf8cdf	-0.021429477
83	0xbcc96057	-0.024582071
84	0x3d0e4690	0.034735262
85	0x3d5170e1	0.05113304
86	0xbc9bbd66	-0.01901121
87	0xbcd9eb5f	-0.026601491
88	0xbd4976d5	-0.049185593
89	0xbbdaec34	-0.0066809896
90	0x3d4f77e0	0.05065143
91	0x3d3cbc81	0.04607821
92	0xbc981806	-0.018566143
93	0xbca61901	-0.020275595
94	0xbcf3d3df	-0.029764114
95	0x3b0e1e2f	0.0021685471
96	0xbd2c9533	-0.042134475
97	0x3bd3ccdb	0.0064636297
98	0x3d0aa681	0.033850197
99	0x3d409c6a	0.047024168
100	0x3ce888aa	0.028385479
101	0x3cff3bb3	0.031156396
102	0xbc9db30f	-0.01925042
103	0xbbf1e45b	-0.0073819584
104	0xbbdcac56	-0.006734411
105	0xbcbf728b	-0.023370048
106	0xbd29c659	-0.041448925
107	0x3b1f10ef	0.0024271568
108	0xbd516a58	-0.051126808
109	0x3d3f1521	0.04665101
110	0xbca1f2d2	-0.019769106
111	0x3cd4ce83	0.025977379
112	0x3c422300	0.011849165
113	0xbd244592	-0.04010541
114	0x3c2e5d9e	0.010642437
115	0xbd178d23	-0.036999833
116	0x3c47d308	0.01219631
117	0xb97a8b47	-0.00023893743
118	0xbc84fd6b	-0.01623412
119	0xbd3e08f3	-0.046395253
120	0xbd38ea8e	-0.045145564
121	0xbd3cc5e6	-0.04608717
122	0xbd13bc35	-0.03606816
123	0x3c9139c0	0.017727733
124	0xbb88a9cc	-0.004170632
125	0x3d59b4e0	0.05315101
126	0x3c43d745	0.01195318
127	0x3d2b0ca6	0.04176011

net.2.weight f4 [64, 128]
0	0x3d790d40	0.06080365
1	0xbd092733	-0.03348465
2	0x3cc3848c	0.023866914
3	0xba4c4d1e	-0.0007793474
4	0xbd2f80fd	-0.042847622
5	0x3d0f6e40	0.035017252
6	0xbc96db3b	-0.018415084
7	0xbd080026	-0.033203267
8	0x3cd7cb99	0.0263422
9	0x3d68bbee	0.05681985
10	0x3d844afe	0.06459616
11	0xbd8bad70	-0.0682019
12	0xbd2ee47f	-0.04269838
13	0xbd036646	-0.032079957
14	0xbcdb1d3a	-0.026747335
15	0x3da37cd0	0.079827905
16	0xbdaa2a55	-0.083088554
17	0xbd905935	-0.07048265
18	0xbd5c8a55	-0.05384286
19	0x3c12e067	0.0089646345
20	0xbc91f55a	-0.017817188
21	0xbc5b0ecc	-0.013370227
22	0xbd864334	-0.06555787
23	0x3c1ec777	0.009691111
24	0xbda9b18d	-0.08285818
25	0xbd81fe20	-0.063472986
26	0xbd8c1815	-0.06840531
27	0xbdb156e0	-0.08659148
28	0xbd9823fe	-0.0742874
29	0xbd89ba4b	-0.06724986
30	0xbbf26c00	-0.0073981285
31	0x3b415818	0.002950197
32	0x3db3d0cf	0.087800615
33	0xbd7764c4	-0.060398832
34	0xbd0ecbc3	-0.03486229
35	0xbb894a20	-0.0041897446
36	0xbd18df17	-0.03732213
37	0xbd869874	-0.06572047
38	0x3dad5a6d	0.08464513
39	0xbd895552	-0.06705727
40	0x3d4be9fe	0.0497837
41	0x3d1574ca	0.03648833
42	0x3d916571	0.070994265
43	0xbd137400	-0.035999298
44	0x3d239735	0.039939124
45	0xbbeff063	-0.0073223575
46	0xbcd1b246	-0.025597703
47	0xbbd4f117	-0.0064984667
48	0x3d95cfc5	0.073150195
49	0x3d99b86d	0.075058796
50	0x3daea855	0.085282005
51	0xbc8c6560	-0.017138183
52	0xbd9fe07e	-0.0780649
53	0xbcf57817	-0.02996449
54	0xbc906b90	-0.017629415
55	0xbd553eb5	-0.052061755
56	0xbd7c0bfe	-0.061534874
57	0x3bb633b4	0.0055603627
58	0x3d1a09ea	0.03760711
59	0xbb9e7740	-0.004835993
60	0x3c4fab82	0.012675168
61	0xbb910810	-0.00442601
62	0xbc4e7afe	-0.012602566
63	0xbd87286f	-0.06599509
64	0x3d03f5bd	0.032216776
65	0x3d818d7f	0.06325816
66	0xbd276083	-0.040863525
67	0xbc219d5d	-0.0098641785
68	0x3d68165a	0.05666194
69	0x3da51c16	0.080619976
70	0x3d580202	0.05273629
71	0x3d8c102f	0.06839024
72	0xbd2882dc	-0.041140422
73	0xbd29fd51	-0.041501347
74	0xba1017b8	-0.00054966984
75	0x3d239f61	0.039946917
76	0x3d04ab34	0.032389835
77	0xbda086d7	-0.07838219
78	0xbcd8c7e3	-0.0264625
79	0xbac8a600	-0.0015308261
80	0x3d90fbd1	0.0707928
81	0x3d62a6ee	0.055334978
82	0xbcc6113e	-0.024178144
83	0xbd388d13	-0.045056414
84	0xbc2aaf70	-0.010417804
85	0xbd900862	-0.07032849
86	0x3c8f0410	0.017457992
87	0xbc37a6c8	-0.011209197
88	0xbd33145e	-0.043720596
89	0xbd8ebbe4	-0.06969431
90	0x3af07dc0	0.0018348023
91	0x3da14d8d	0.0787612
92	0xbd2b9f58	-0.04190001
93	0xbd59426c	-0.05304186
94	0x3cc8ecab	0.024526915
95	0x3da0de45	0.078548945
96	0xbd29032b	-0.041262787
97	0xbcc8eea8	-0.024527863
98	0x3b4d6299	0.0031339286
99	0xbd5cda89	-0.05391935
100	0xbb44ccaa	-0.0030029216
101	0x3d43d002	0.047805794
102	0xbd74cd0c	-0.05976586
103	0xbd814157	-0.06311291
104	0xbd8bf9ee	-0.0683478
105	0x3d418e50	0.04725486
106	0x3c814523	0.015780037
107	0x3ac1d640	0.0014788583
108	0x3d947daf	0.07250535
109	0x3d0efa5d	0.034906734
110	0x3c8f331c	0.017480426
111	0xbc5966c8	-0.013269134
112	0xbd61874a	-0.055060662
113	0x3da8c915	0.08241478
114	0x3dabc21d	0.083866335
115	0x3c1361f2	0.00899552
116	0x3d06eca2	0.032940514
117	0xbd3b1358	-0.045672745
118	0x3d78168d	0.06056838
119	0xbc134bc0	-0.008990228
120	0xba526480	-0.000802584
121	0xbaa83fe8	-0.0012836428
122	0x3d3922ee	0.045199327
123	0xbcdf8126	-0.027283262
124	0x3d6cf49e	0.057850473
125	0x3cdda6d4	0.027057089
126	0xbcf7fcf4	-0.030271985
127	0x3c830718	0.015994594
128	0xbd14aef2	-0.036299653
129	0xbd35794b	-0.044305127
130	0x3d28645d	0.04111134
131	0xbd21a813	-0.03946693
132	0x3c526127	0.012840546
133	0xbd53e6b6	-0.051733695
134	0xbd2d0455	-0.04224046
135	0xbc9bcfd6	-0.019020002
136	0xbc8b4104	-0.016998775
137	0xbd7418f6	-0.059594117
138	0x3adea013	0.0016984962
139	0xbd1467dd	-0.036231864
140	0x3d7c9d88	0.06167367
141	0xbd92a843	-0.071609996
142	0x3d087eb4	0.03332396
143	0x3c85a8a5	0.016315768
144	0xbcf2ff5d	-0.029662782
145	0x3d7247f8	0.059150666
146	0x3ca5b8e8	0.020229772
147	0xbc7c986a	-0.015417198
148	0x3daf7d7a	0.08568855
149	0xbd39bb40	-0.04534459
150	0xbc2d6e3e	-0.010585366
151	0x3d9a8086	0.07544045
152	0x3d3bdf84	0.045867458
153	0xbd16e635	-0.036840636
154	0xbd7b46c6	-0.06134679
155	0x3d385cd2	0.045010395
156	0x3c655ba6	0.0139989015
157	0xbce16c3f	-0.027517436
158	0xbdab50ca	-0.08365019
159	0x3ca1416d	0.019684518
160	0x3d5c17f4	0.05373378
161	0x3d8e6b91	0.069541104
162	0x3ce24848	0.027622357
163	0xbccaf765	-0.02477617
164	0xbc1978e3	-0.009367201
165	0xbd8d5c20	-0.06902337
166	0xbd3c13a3	-0.045917165
167	0xbceafbb7	-0.02868448
168	0xbd23cf89	-0.039992843
169	0xbccda000	-0.025100708
170	0x3d0fa831	0.03507251
171	0x3d6718d3	0.05642016
172	0x3d9ed613	0.07755675
173	0x3d08ea02	0.033426292
174	0x3d85b74f	0.06529104
175	0xbd94d8ac	-0.072678894
176	0x3da69c20	0.08135247
177	0xbd8aa702	-0.067701355
178	0x3d53153a	0.051533915
179	0xbd3e4298	-0.046450227
180	0x3d90a35a	0.07062407
181	0x3ca2fadb	0.019895008
182	0x3d639cc2	0.055569418
183	0x3d0279a7	0.031854298
184	0xbd351f6b	-0.044219416
185	0x3cf534f4	0.029932477
186	0x3cf5df18	0.030013606
187	0x3c0ac896	0.008470675
188	0xbd6f8837	-0.058479514
189	0x3d77a8dc	0.06046377
190	0xbd45baed	-0.04827397
191	0x3dade5f3	0.08491125
192	0x3d13953d	0.036030997
193	0xbcdff0cb	-0.027336499
194	0x3dabbb24	0.083853036
195	0xbca68c4c	-0.02033057
196	0xbdaf933c	-0.085730046
197	0x3d8d7db7	0.06908744
198	0x3d4a2db1	0.04935998
199	0x3aaeda07	0.0013340124
200	0x3d3467c7	0.044044282
201	0x3d95d073	0.07315149
202	0xbd2e2106	-0.042511962
203	0x3c7dc21f	0.015488177
204	0x3d5c64b0	0.05380696
205	0xbd8c7d10	-0.06859791
206	0xbd879646	-0.06620459
207	0x3d9b8ec4	0.0759559
208	0xbda289c7	-0.07936435
209	0xbd1837a7	-0.03716245
210	0x3ce8f1ed	0.028435672
211	0xbcd269cd	-0.025685215
212	0xbd06fa31	-0.032953445
213	0xbd3e47f0	-0.046455324
214	0xbd733950	-0.05938083
215	0xbcf24506	-0.029573929
216	0xbda9197c	-0.08256814
217	0x3d5fc4e2	0.05463112
218	0xbba85b40	-0.005137831
219	0x3d7a4a0c	0.061105773
220	0x3b5fb67d	0.003413587
221	0x3d44e71c	0.048071966
222	0xbd8c3f52	-0.06848015
223	0x3d94ecad	0.07271705
224	0xbcc7acf3	-0.02437446
225	0xbd0e1cc9	-0.03469542
226	0x3cf39752	0.029735241
227	0x3cfb058c	0.030642293
228	0x3da72113	0.08160605
229	0xbc09e97a	-0.008417482
230	0xbd7ddcbd	-0.06197809
231	0xbd2cc65d	-0.04218136
232	0xbb032851	-0.0020013044
233	0x3cee81db	0.029114654
234	0xbd8fd876	-0.070237085
235	0xbb0361bb	-0.0020047266
236	0xbcc73568	-0.024317458
237	0xbd96ae14	-0.073574215
238	0x3a6039fd	0.0008553563
239	0x3c63858e	0.013886822
240	0x3d216e9e	0.039412133
241	0x3d23ab54	0.039958313
242	0x3d4eb523	0.050465714
243	0xbbafa81d	-0.005360617
244	0xbd757314	-0.0599242
245	0xbbe26c8c	-0.0069099125
246	0x3d8e987f	0.0696268
247	0xbda75d49	-0.081720896
248	0xbd8ade10	-0.06780636
249	0x3d00213e	0.031281702
250	0x3d5e50b5	0.054276187
251	0x3d3149be	0.043283217
252	0xbd34c0f0	-0.044129312
253	0xbcbf5bff	-0.023359297
254	0x3d0594b4	0.032612517
255	0x3bb02d9a	0.00537653

net.2.bias f4 [64]
0	0xbb14e43f	-0.0022719053
1	0xbd916a49	-0.071003504
2	0x3d4a21f0	0.04934877
3	0xbbc1851b	-0.00590576
4	0x3d9d59bc	0.07683131
5	0xbcb507c9	-0.022098439
6	0xbd398432	-0.045292087
7	0xbd026ad8	-0.031840175
8	0xbc8556e2	-0.01627678
9	0xbd449ea7	-0.048002865
10	0xbd51b615	-0.051199038
11	0xbcaf5a78	-0.021405444
12	0xbd101ef4	-0.03518577
13	0x3d0e404d	0.03472929
14	0x3d66e0ad	0.05636661
15	0xbd0726e6	-0.03299608
16	0xbd0bac54	-0.03409989
17	0x3cacac72	0.021078322
18	0x3dabcc9b	0.08388635
19	0x3d4bf74b	0.049796384
20	0x3b160aa6	0.002289453
21	0x3da7efc9	0.08200032
22	0xbd8487fa	-0.06471248
23	0xbd13dd85	-0.03609993
24	0xbcae6643	-0.021288997
25	0xbd99b560	-0.07505298
26	0xbbb8e821	-0.0056429063
27	0x3dadf27f	0.08493518
28	0x3b9160e0	0.004436597
29	0xbda5b315	-0.08090798
30	0xbcfa0348	-0.030519143
31	0xbd5c0d6e	-0.053723745
32	0x3d8e8634	0.06959191
33	0xbc6ff89c	-0.014646675
34	0xbc04c672	-0.008103954
35	0x3d16c817	0.036811914
36	0xbd60df56	-0.05490049
37	0x3d0576dd	0.03258406
38	0x3c06818d	0.008209598
39	0x3d3f7d77	0.046750512
40	0xbd5b30b6	-0.05351325
41	0xbce735eb	-0.028223952
42	0xbd9e03ff	-0.07715606
43	0x3d380857	0.04492983
44	0x3daf685d	0.085648276
45	0xbd17b1ef	-0.037034925
46	0xbc2f8afa	-0.010714287
47	0xbc870211	-0.016480478
48	0xbbe9a401	-0.0071301465
49	0xbd950f9c	-0.07278368
50	0x3b89c2b7	0.00420412
51	0x3c40be9e	0.011764197
52	0xbd1d88ae	-0.038460426
53	0xbd540047	-0.051758077
54	0x3cf91338	0.030404672
55	0xbd1360a9	-0.035980854
56	0x3d1bcd75	0.038037736
57	0xbce4f0e0	-0.02794689
58	0xbc5feb1a	-0.013666892
59	0xbd53da52	-0.05172188
60	0x3d3b89d9	0.04578576
61	0xbcdd09be	-0.026982184
62	0x3c41d38a	0.01183022
63	0xbd48097f	-0.04883718

net.4.weight f4 [30, 64]
0	0x3d768ac0	0.060190916
1	0x3deb99f8	0.115039766
2	0xbd2e9d7f	-0.04263067
3	0x3cf995bb	0.030466905
4	0x3ca8075d	0.020511324
5	0xbbd697cf	-0.0065488587
6	0x3d06f09d	0.03294431
7	0xbc858fe9	-0.016303973
8	0x3d0a21fc	0.033723816
9	0x3b625985	0.003453822
10	0x3dccfa6d	0.100087024
11	0x3998a043	0.00029111104
12	0x3cb15df2	0.021651242
13	0xbded4e21	-0.115871675
14	0x3d6a0afb	0.057139378
15	0x3db4b77b	0.088240586
16	0xbdd09829	-0.10185272
17	0xbd42f152	-0.047593422
18	0x3d8456ac	0.06461844
19	0x3c31bc34	0.010848094
20	0x3dfe0ee9	0.12405188
21	0x3dd8d898	0.10588187
22	0x3d4b3740	0.049613237
23	0x3d6e23aa	0.05813948
24	0x3d9455b5	0.0724291
25	0x3c073981	0.008253456
26	0x3d41dcba	0.047329642
27	0x3d4e973e	0.050437205
28	0x3e00c47f	0.12574957
29	0xbd1b36cc	-0.037894055
30	0x3d9d3d01	0.07677651
31	0x3d0589bc	0.032602057
32	0x3d8cf066	0.0688179
33	0xbd81ce9a	-0.06338234
34	0xbd693daa	-0.056943573
35	0x3c94ca07	0.01816274
36	0x3d7b0ddd	0.061292518
37	0x3d0c7214	0.03428848
38	0xbd6d9d55	-0.05801137
39	0x3db5881a	0.0886385
40	0xbde0efe8	-0.109832585
41	0x3cbea70f	0.02327302
42	0xbd98f8c4	-0.07469323
43	0x3dd01df7	0.10161965
44	0x3d9d247d	0.07672975
45	0xbd9e8a1c	-0.07741186
46	0x3cb49e0a	0.022048015
47	0x3d079e6e	0.033110075
48	0xbdcf0d30	-0.10109937
49	0xbd5b9262	-0.0536064
50	0x3d065dc4	0.032804266
51	0xbd87e160	-0.06634784
52	0x3db4a6a0	0.08820844
53	0xbc10009e	-0.00878921
54	0x3dcb871c	0.099378794
55	0x3d1de447	0.03854778
56	0x3ddcdde7	0.10784512
57	0xbc46284f	-0.012094571
58	0x3df6b585	0.12046341
59	0xbc7cdbee	-0.015433295
60	0xbcede3d3	-0.0290393
61	0xbc404e7e	-0.011737464
62	0x3de55c50	0.11199248
63	0x3c74bb8a	0.014937291
64	0x3dc4a8b3	0.09602489
65	0xbd69bfc3	-0.057067644
66	0x3c37296d	0.01117931
67	0xbd75521b	-0.059892755
68	0xbde02f5e	-0.109465346
69	0x3c25d55f	0.010121672
70	0x3ce98fa2	0.028510872
71	0xbda7ea91	-0.08199037
72	0xbdda3289	-0.1065417
73	0x3dcc183f	0.09965562
74	0xbce9be31	-0.028533073
75	0x3d2f41ad	0.042787243
76	0xbdfcb652	-0.12339462
77	0x3c0c0d28	0.008548059
78	0x3dc6eef0	0.097135425
79	0xbcfb33a8	-0.03066428
80	0x3ce561d7	0.028000755
81	0x3de18f45	0.110136546
82	0xbc6df870	-0.014524564
83	0x3a2a9027	0.0006506466
84	0xbbb3813e	-0.0054780534
85	0xbc427b1d	-0.011870173
86	0x3da300df	0.079591505
87	0x3dbc728d	0.09201536
88	0x3caccdb0	0.021094173
89	0xbdf4cc02	-0.11952974
90	0xbd98ce30	-0.07461202
91	0x3ba1e503	0.0049406304
92	0x3d439de9	0.047758017
93	0x3b0ae0c0	0.002119109
94	0xbdc65b01	-0.09685326
95	0x3dafb26a	0.08578952
96	0x3d916273	0.07098856
97	0xbdbe3541	-0.09287501
98	0xbd8a2d89	-0.067469664
99	0xbd6c7a09	-0.05773357
100	0x3bc9dc46	0.006160292
101	0x3cb70015	0.022338906
102	0xbdb955c6	-0.09049563
103	0x3c40194d	0.011724782
104	0xbdfa2f15	-0.122160114
105	0x3dd4c18f	0.10388481
106	0xbcdb30ba	-0.026756633
107	0x3dca9180	0.09891033
108	0xbdfe4b5d	-0.12416718
109	0x3c737a64	0.014860723
110	0x3da3496f	0.07972991
111	0x3de98df7	0.11404031
112	0x3cfa7626	0.030573916
113	0x3dad778a	0.08470066
114	0x3dc4ffb5	0.09619085
115	0x3b02b3c2	0.001994357
116	0x3dc64d0d	0.09682665
117	0xbce1bd58	-0.027556106
118	0x3dd5c5e4	0.10438135
119	0xbda56cec	-0.08077416
120	0x3c83503f	0.016029475
121	0xbd5138b6	-0.051079474
122	0x3d6d23e2	0.05789555
123	0x3d58212c	0.05276601
124	0x3da1215d	0.07867692
125	0x3dcd9ea8	0.10040027
126	0xbd0d4949	-0.03449372
127	0x3d47606c	0.04867594
128	0x3c824132	0.015900228
129	0xbc64167e	-0.013921378
130	0xbd17fba2	-0.03710521
131	0xbd30cbf7	-0.043163266
132	0xbdd426d8	-0.10358971
133	0xbd94d386	-0.072669074
134	0x3bfd295b	0.007725877
135	0xbcd8bb8d	-0.026456619
136	0x3ddb5ad9	0.10710687
137	0xbd93fffa	-0.07226558
138	0x3c0e57c9	0.008687922
139	0x3dada395	0.084784664
140	0xbd078942	-0.033089884
141	0x3df48e03	0.11941149
142	0xbddc4cfb	-0.1075687
143	0xbd19f8bc	-0.037590727
144	0xbde6050e	-0.11231433
145	0xbd33840e	-0.04382711
146	0x3daa23e5	0.083076276
147	0xbdd55f39	-0.10418553
148	0x3da73b60	0.08165622
149	0x3d9efbdc	0.07762882
150	0x3ce3605c	0.027755909
151	0x3d81fb94	0.06346813
152	0x3df77544	0.120829135
153	0xbdb281ad	-0.0871614
154	0x3c7901b2	0.015198158
155	0x3d421943	0.047387373
156	0xbd312afe	-0.04325389
157	0xbdfa8ba6	-0.12233667
158	0xbdc10c61	-0.09426189
159	0x3c537ee0	0.012908667
160	0xbaf4e827	-0.001868491
161	0x3d894f4c	0.06704578
162	0x3d60c047	0.05487087
163	0x3d9ffdd7	0.07812088
164	0xbd887629	-0.06663162
165	0x3d91ea51	0.071247704
166	0xbcd2c9d3	-0.025731003
167	0x3dda301c	0.106537074
168	0xbb20258d	-0.0024436445
169	0xbd62d3a4	-0.055377617
170	0x3dd3165f	0.10307001
171	0x3d0e5db8	0.034757346
172	0xbdead5ce	-0.11466561
173	0x3deceb9e	0.11568378
174	0x3d96aa97	0.07356756
175	0xbd7e4007	-0.06207278
176	0xbd989b47	-0.07451492
177	0xbcf71a87	-0.030164016
178	0x3d8e89ec	0.069599
179	0xbddcccb7	-0.10781234
180	0xbc1165df	-0.008874386
181	0x3d646d95	0.055768568
182	0x3c8a3598	0.016871259
183	0x3dc6f626	0.09714918
184	0x3dc0b017	0.094085865
185	0x3dc161df	0.094424956
186	0x3b4dbe35	0.003139389
187	0x3d691d07	0.05691245
188	0xbbfa3949	-0.0076362235
189	0xbd9afc6e	-0.075676784
190	0xbd96d616	-0.073650524
191	0xbd465ed5	-0.048430283
192	0x3dc243a3	0.09485557
193	0x3d14b268	0.036302954
194	0x3d6b6d27	0.057477143
195	0xbddef8c7	-0.10887294
196	0x3db6903d	0.0891423
197	0x3d9be57d	0.07612131
198	0x3bc6e924	0.006070273
199	0x3c671590	0.014104262
200	0xbba8e4ba	-0.0051542195
201	0xbd23f1f5	-0.04002567
202	0xbdd99b9b	-0.106253825
203	0x3c02bad0	0.00797911
204	0xbdc45956	-0.09587352
205	0x3dd9a26b	0.10626682
206	0xbdd07fff	-0.10180663
207	0xbd8dd6d1	-0.069257386
208	0x3d5a65d0	0.053319752
209	0x3c6ff3a3	0.01464549
210	0x3d5865db	0.052831512
211	0x3dd1d886	0.10246377
212	0x3b13182b	0.0022444825
213	0xbca76f96	-0.02043895
214	0x3d9878f1	0.07444943
215	0xbdc281f2	-0.09497441
216	0x3dae65b9	0.08515496
217	0x3df31cd8	0.11870736
218	0xbc820355	-0.01587073
219	0x3df03c96	0.11730306
220	0x3dd0944b	0.10184535
221	0x3d5b7838	0.053581446
222	0x3d5960e3	0.053070914
223	0x3d901718	0.07035655
224	0x3d213d1f	0.03936493
225	0x3d193458	0.037403435
226	0x3de1afe0	0.110198736
227	0x3cd490ce	0.025947955
228	0xbd1160f2	-0.035492845
229	0x3dfd429d	0.12366221
230	0xbdeef6c4	-0.116681606
231	0xbd64b054	-0.055832222
232	0x3d118ba8	0.035533577
233	0x3d249c87	0.04018834
234	0x3de863d3	0.11347165
235	0xbd3138fe	-0.043267243
236	0xbdc40221	-0.095707186
237	0x3d693bc4	0.056941763
238	0xbd5e39c8	-0.054254323
239	0x3d4038ed	0.04692929
240	0xbdecd77e	-0.115645394
241	0xbc280c98	-0.010256909
242	0x3dc441da	0.09582873
243	0x3d23d0ac	0.039993927
244	0xbc5afcac	-0.013365906
245	0xbd097166	-0.03355541
246	0x3ce50728	0.027957514
247	0x3d4cc1a0	0.049989343
248	0x3d133a28	0.035944134
249	0x3df06650	0.117382646
250	0xbdf931a5	-0.12167672
251	0xbc9fd5ee	-0.01951119
252	0x3c26cc27	0.01018051
253	0x3d4f88bf	0.05066752
254	0xbd9e274b	-0.07722338
255	0xbd810ade	-0.06300901

net.4.bias f4 [30]
0	0x3d82a5a3	0.06379249
1	0x3ca95148	0.02066864
2	0xbddb7e25	-0.107174195
3	0xbdfd8e9e	-0.12380718
4	0xbdfa6d1b	-0.122278415
5	0x3d64af85	0.05583145
6	0x3df4a9fc	0.119464844
7	0x3dcd9e10	0.10039914
8	0xbdc2f2cd	-0.09518967
9	0xbdfb5cca	-0.122735575
10	0x3d6d56e3	0.05794419
11	0x3caa1284	0.020760782
12	0xbdceac6b	-0.1009148
13	0x3d81ae8b	0.063321196
14	0xbdca2a37	-0.09871333
15	0x3ad6fb2b	0.0016401758
16	0x3db79d4e	0.0896555
17	0x3dd280e9	0.10278494
18	0x3dd48d08	0.10378462
19	0xbc6aaa38	-0.01432281
20	0x3daad945	0.08342222
21	0xbcec7755	-0.028865496
22	0xbd0c0e5c	-0.03419338
23	0xbd215bd3	-0.03939421
24	0xbc2064e1	-0.009789676
25	0xbddabc5b	-0.10680457
26	0x3de5f308	0.11227995
27	0xbdfaabd6	-0.12239806
28	0x3d90c6b5	0.0706915
29	0x3d4fefcc	0.050765797
