examples/papertrading_erl/actor.pth (torch, 214017 bytes, 7 tensors)

action_std_log f4 [1, 30]
-3.9921735e-05 6.7698995e-05 0.00014522501 0.0003293768 0.00019627367 0.00032287097 0.00019517784 0.0003692326
8.767466e-05 8.266232e-05 0.00016831275 0.00036722526 0.00034060888 9.2011396e-05 0.00015571862 0.00017145391
0.00022768472 0.00010201725 0.00014194092 8.190486e-05 0.0002940693 5.5782355e-05 0.00019695013 0.0001350702
0.0004889576 0.00013064814 0.00032728148 0.00027666363 0.0002732993 0.00017994057
00000000: a371 27b8 9ff9 8d38 8b47 1839 35b0 ac39
00000010: d0ce 4d39 0247 a939 a7a8 4c39 9095 c139
00000020: fadd b738 ff5a ad38 1c7d 3039 2488 c039
00000030: c093 b239 3ef6 c038 6648 2339 4fc8 3339
00000040: a7be 6e39 18f2 d538 fad5 1439 56c4 ab38
00000050: 502d 9a39 d9f7 6938 6684 4e39 a1a1 0d39
00000060: 642d 003a 98fe 0839 fa96 ab39 2a0d 9139
00000070: 9c49 8f39 6eae 3c39

net.0.weight f4 [128, 333]
0.020973412 -0.033001266 -0.009681832 -0.004024549 -0.044967137 0.026065044 -0.018250775 0.0455777
0.027670642 -0.003089786 0.030904807 -0.019517327 -0.00029224626 0.0062823356 0.015256911 0.013870311
-0.048335567 -0.0048021968 0.053226773 0.02334663 0.027836671 -0.04344152 0.023345161 -0.05371166
0.005359349 -0.04475213 -0.024041818 0.046393618 0.040862966 0.054724313 0.014730244 -0.042247284
-0.00038424353 0.012504526 -0.031631004 -0.008699535 -0.03516811 0.024811978 0.009111207 0.009905279
-0.020312784 -0.015617366 -0.049677536 -0.03274012 0.025775315 -0.023750924 0.030764874 0.04652697
-0.05252535 -0.050595462 -0.034152057 0.037237346 1.23002e-05 -0.013974633 -0.030147849 -0.02476922
0.010396133 0.048722472 -0.010545138 -0.00653165 -0.01578354 0.026624676 -0.0031414065 0.013390039
-0.049261507 -0.039447777 -0.03422395 0.028715402 -0.040198214 -0.050949126 0.04657398 -0.03963422
0.033005558 -0.0032723148 -0.02859414 0.015591855 0.043566085 0.010057895 -0.0028211798 -0.0047388435
-0.05284055 -0.024430936 0.003157978 -0.027059507 -0.009650172 -0.05087307 0.00094070286 0.0048696566
0.03717729 0.04799341 0.005646022 0.05209608 0.013669109 0.020646246 0.01721447 -0.0069992356
-0.046296835 0.029578427 0.023059659 -0.04237275 -0.0028114072 0.040820975 0.051003803 -0.05272208
0.021098573 0.043112557 0.05033178 0.0047598407 0.03226832 0.017375072 -0.013308372 0.038492702
0.029311182 0.042996038 0.026407959 -0.034544047 -0.05151351 0.0034632639 -0.039087348 0.05454904
0.04007744 0.0010312008 0.018117506 -0.040215235 -0.029512137 -0.018653883 -0.047894627 0.049019948
-0.022442464 0.027264709 0.022829732 0.042529233 -0.013636875 -0.011566881 0.024693757 0.025706846
0.0047358125 0.04852436 -0.0016371531 -0.035846032 0.023917379 0.011648498 -0.029560776 0.04146948
-0.017059889 0.0033774911 0.03983194 0.034302767 -0.05454399 -0.034006715 -0.027003799 0.03786395
-0.038284756 -0.04228981 0.050170563 0.01620508 0.030076556 -0.012721265 -0.014422795 -0.04926337
-0.017052477 0.012774356 -0.03861312 -0.039773993 -0.014102042 0.007420592 -0.02994967 0.027018147
0.003485304 -0.027410334 0.006608039 -0.033082068 -0.033780713 0.011347115 -0.013511535 -0.014723697
-0.04296813 0.040266667 -0.028401695 0.044696797 -0.027459739 -0.043973885 -0.0019463376 -0.037923925
-0.029222365 0.008333957 -0.00090553507 -0.006276734 -0.015206317 -0.002876593 0.042571478 -0.018578103
-0.048081085 -0.011718306 0.040439513 -0.020182531 -0.03317446 -0.0362444 -0.009420265 0.015631383
0.03485137 0.0263932 -0.0007585528 -0.015309137 -0.022203019 -0.038562708 0.017012533 -0.013300604
-0.051595956 -0.031145068 0.012603004 0.016630389 -0.015889209 -0.048657708 -0.03835655 -0.045480654
0.012843448 0.031311084 0.025447277 -0.026953302 0.040606204 0.04609738 0.008850854 -0.0155355595
-0.013913446 -0.04567649 -0.007942173 0.011682021 0.03247313 0.025174202 0.009557983 -0.030180125
-0.026676832 -0.0037645116 0.041348334 -0.04404689 0.007679246 -0.008299405 -0.02066401 -0.047434792
0.03659053 0.03874302 -0.008715216 -0.03428062 0.016667396 0.034907542 -0.047642738 0.01000923
0.027230754 0.030668618 0.01774706 -0.008454537 -0.04935572 0.021517292 0.049031112 -0.029915469
00000000: 6fd0 ab3c 562c 07bd 8ca0 1ebc 5de0 83bb
00000010: 762f 38bd 5c86 d53c a682 95bc afaf 3a3d
00000020: 8bad e23c 027e 4abb 142c fd3c cde2 9fbc
00000030: a138 99b9 0ddc cd3b 1ff8 793c 4d40 633c
00000040: 84fb 45bd bf5b 9dbb 5104 5a3d 6f41 bf3c
00000050: bb09 e43c bcef 31bd 5a3e bf3c c200 5cbd
00000060: 7a9d af3b 024e 37bd 59f3 c4bc 3c07 3e3d
00000070: ed5f 273d 9a26 603d 1f57 713c 7d0b 2dbd
00000080: 4b74 c9b9 c9df 4c3c 838f 01bd 7f88 0ebc
00000090: 700c 10bd 7d42 cb3c 2c47 153c c049 223c
000000a0: ff66 a6bc fbdf 7fbc ac7a 4bbd 811a 06bd
000000b0: c126 d33c 4c91 c2bc 9e06 fc3c 1093 3e3d
000000c0: d224 57bd 303d 4fbd 07e3 0bbd 3086 183d
000000d0: f55c 4e37 dcf5 64bc 9ff8 f6bc d2e8 cabc
000000e0: 8b54 2a3c 3791 473d 84c5 2cbc 7407 d6bb
000000f0: 7c4c 81bc fe1b da3c 0ee0 4dbb e561 5b3c
00000100: 6fc6 49bd fe93 21bd 6a2e 0cbd 903c eb3c
00000110: e2a6 24bd 08b0 50bd 5cc4 3e3d 7e57 22bd
00000120: d630 073d 5574 56bb 423e eabc fb74 7f3c
00000130: 5a72 323d dfc9 243c 8be3 38bb 4d48 9bbb
00000140: 556f 58bd 6323 c8bc 14f6 4e3b e6ab ddbc
00000150: c11b 1ebc 4860 50bd 8099 763a a491 9f3b
00000160: 3747 183d bd94 443d 4402 b93b b362 553d
00000170: 66f4 5f3c 5122 a93c 5c05 8d3c d859 e5bb
00000180: c0a1 3dbd 754e f23c 9ce7 bc3c 0c8f 2dbd
00000190: 963f 38bb e533 273d 5de9 503d 1cf3 57bd
000001a0: ead6 ac3c cb96 303d b228 4e3d 70f8 9b3b
000001b0: c92b 043d 2b56 8e3c 5c0b 5abc 86aa 1d3d
000001c0: 011e f03c 9d1c 303d 8155 d83c 0f7e 0dbd
000001d0: d5ff 52bd edf7 623b 0e1a 20bd d06e 5f3d
000001e0: 3e28 243d 5b29 873a 2a6b 943c bbb8 24bd
000001f0: 70c3 f1bc 07d0 98bc 282d 44bd 24c9 483d
00000200: 42d9 b7bc 3d5a df3c 6b05 bb3c 2233 2e3d
00000210: 336d 5fbc 0483 3dbc 904a ca3c 2a97 d23c
00000220: e02e 9b3b 7bc1 463d be95 d6ba 4ad3 12bd
00000230: 61ee c33c 57d9 3e3c 7129 f2bc e7db 293d
00000240: 2ec1 8bbc e658 5d3b d126 233d 0f81 0c3d
00000250: 8569 5fbd a04a 0bbd 1237 ddbc 3b17 1b3d
00000260: 7ad0 1cbd 1438 2dbd a67f 4d3d 84c0 843c
00000270: 1c63 f63c da6c 50bc 964d 6cbc 63c8 49bd
00000280: a3b1 8bbc 884b 513c ca28 1ebd 0eea 22bd
00000290: 400c 67bc 7028 f33b 0359 f5bc 2955 dd3c
000002a0: b369 643b a38b e0bc 4088 d83b 1081 07bd
000002b0: a55d 0abd 40e9 393c 7c5f 5dbc a93b 71bc
000002c0: 5aff 2fbd a9ee 243d acaa e8bc fd13 373d
000002d0: 3ff3 e0bc f61d 34bd 411c ffba 1e56 1bbd
000002e0: be63 efbc 268b 083c 6e61 6dba 10ad cdbb
000002f0: eb23 79bc 3985 3cbb 6e5f 2e3d 1b31 98bc
00000300: acf0 44bd 23fe 3fbc e7a3 253d d655 a5bc
00000310: f1e1 07bd 0275 14bd 7557 1abc 630d 803c
00000320: 4fc0 0e3d 8d36 d83c 9ed9 46ba 2dd3 7abc
00000330: 1be3 b5bc eef3 1dbd de5d 8b3c c7ea 59bc
00000340: 4856 53bd f123 ffbc d57c 4e3c 743c 883c
00000350: 162a 82bc 4e4d 47bd c21b 1dbd ec49 3abd
00000360: 536d 523c 0d40 003d cf76 d03c 2ccd dcbc
00000370: b152 263d 9bd0 3c3d 2c03 113c dc88 7ebc
00000380: 39f5 63bc 4517 3bbd e31f 02bc f365 3f3c
00000390: 8b02 053d 213a ce3c 1699 1c3c 4f3c f7bc
000003a0: 5f89 dabc 06b6 76bb df5c 293d 836a 34bd
000003b0: 2fa2 fb3b 3afa 07bc 9247 a9bc fc4a 42bd
000003c0: f4df 153d 00b1 1e3d 44ca 0ebc d669 0cbd
000003d0: 108a 883c 36fb 0e3d 0825 43bd c1fd 233c
000003e0: 0813 df3c c13c fb3c 4862 913c e684 0abc
000003f0: 3929 4abd 0845 b03c d9d4 483d 4911 f5bc

net.0.bias f4 [128]
-0.00420536 -0.05137024 -0.023666583 0.021480918 -0.0026760772 -0.041477263 0.041581918 -0.0056291125
0.024672447 0.045044262 0.027348286 0.024714738 -0.03886361 -0.009511346 -0.009833636 -0.016389202
0.012161254 -0.05272293 -0.031742968 0.029051196 -0.02328375 0.004706744 0.0087531125 0.053366948
-0.03396697 0.01105074 0.0265847 -0.018639008 0.016675891 0.050347906 0.020332107 0.03763321
-0.04942655 0.046534333 0.036329873 -0.002885908 0.017067086 -0.022338621 -0.026503544 0.00404793
0.009682816 -0.025234777 -0.012749817 0.05401222 -0.05363721 -0.024542548 0.007862097 -0.039071877
0.018194998 0.0026929306 -0.0008568088 -0.03746533 -0.0016828068 -0.031103713 -0.0071848696 0.017498722
-0.0014570276 -0.00095151784 -0.049723193 -0.0138338115 0.0062417164 0.042732157 0.009849314 0.010171812
0.04589797 -0.035103127 0.013108611 -0.035220962 -0.019394202 -0.04395182 -0.04871766 -0.044046126
0.005336381 0.029452052 -0.009045683 0.010356889 -0.04123872 -0.005992158 -0.018862866 0.015069085
-0.0025107283 0.03272279 0.013065516 0.033224758 0.049866326 -0.036141764 0.037570555 -0.016008351
-0.022977289 -0.026544925 0.05438098 -0.030690083 0.048836403 -0.026543606 0.008886387 -0.035128403
0.029952306 -0.0066330917 -0.035889167 0.04018658 0.010411502 -0.02276264 0.021039046 -0.033958305
-0.013649894 -0.049738355 0.00043588967 0.040423226 -0.048526626 0.036500107 0.0152562745 0.04153857
-0.038858343 -0.03473111 0.005155308 -0.050869696 -0.051173672 0.0036180564 0.0390839 -0.03041625
0.03225969 0.045907695 0.0073529514 -0.004780729 0.019309636 0.00701606 -0.009047706 -0.034199934
00000000: 1ecd 89bb 9a69 52bd 6ce0 c1bc c0f8 af3c
00000010: 2061 2fbb 10e4 29bd cd51 2a3d 6b74 b8bb
00000020: df1d ca3c 5580 383d 8309 e03c 9076 ca3c
00000030: 732f 1fbd 7ad5 1bbc 421d 21bc a642 86bc
00000040: ff3f 473c 00f4 57bd ea04 02bd c6fc ed3c
00000050: 90bd bebc 083b 9a3b 3769 0f3c 4d97 5a3d
00000060: f320 0bbd 2a0e 353c 28c8 d93c d5b0 98bc
00000070: e19b 883c 9b39 4e3d 858f a63c 4825 1a3d
00000080: 7e73 4abd c99a 3e3d a2ce 143d 8021 3dbb
00000090: 46d0 8b3c 7cff b6bc f61d d9bc 7fa4 843b
000000a0: ada4 1e3c 2ab9 cebc 9ce4 50bc eb3b 5d3d
000000b0: b1b2 5bbd 740d c9bc 06d0 003c d509 20bd
000000c0: ad0d 953c e17b 303b 779b 60ba 3f75 19bd
000000d0: a091 dcba 37cd febc 0e6f ebbb 7b59 8f3c
000000e0: bcf9 beba 486f 79ba 8caa 4bbd 36a7 62bc
000000f0: 5087 cc3b ea07 2f3d 045f 213c aca7 263c
00000100: 83ff 3b3d 4cc8 0fbd 80c5 563c db43 10bd
00000110: 97e0 9ebc d306 34bd 2b8c 47bd b669 34bd
00000120: cfdc ae3b 6e45 f13c 5834 14bc f1af 293c
00000130: efe9 28bd dd59 c4bb 4c86 9abc 53e4 763c
00000140: 088b 24bb 5508 063d bf10 563c af16 083d
00000150: a240 4c3d 6309 14bd 95e3 193d f223 83bc
00000160: de3a bcbc be74 d9bc 97be 5e3d c569 fbbc
00000170: ae08 483d fa71 d9bc 3598 113c cde2 0fbd
00000180: 8a5e f53c 685a d9bb 8500 13bd af9a 243d
00000190: 0195 2a3c b778 babc 145a ac3c dd17 0bbd
000001a0: cea3 5fbc 72ba 4bbd 1f88 e439 d392 253d
000001b0: dbc3 46bd 2381 153d 74f5 793c 5924 2a3d
000001c0: ed29 1fbd 3542 0ebd dced a83b be5c 50bd
000001d0: 7c9b 51bd ea1c 6d3b 7116 203d 802b f9bc
000001e0: bd22 043d b509 3c3d 07f1 f03b a9a7 9cbb
000001f0: 3e2f 9e3c fae6 e53b d43c 14bc 3b15 0cbd

net.2.weight f4 [64, 128]
0.011947968 0.01381778 -0.006204852 0.07766924 0.0029548854 -0.052112237 -0.029187353 0.051422413
0.058220927 -0.047803517 -0.0011475757 -0.061832864 -0.056553733 -0.08445014 0.06784046 0.028545704
0.012506403 -0.06534378 -0.0059490446 0.08797612 0.007984338 -0.064472966 -0.050521106 -0.059202243
0.042519692 -0.04587484 -0.014668376 0.008878976 -0.08271707 -0.04122148 0.037192114 -0.0320803
-0.06464188 -0.0038968024 0.07184237 -0.013185144 0.068624154 -0.016935965 0.057164066 -0.016448086
-0.06041745 0.018733146 0.0646469 -0.0747456 -0.061631233 -0.009861332 -0.08782952 0.028596342
-0.006639123 0.055674993 0.06313796 -0.01757683 -0.011761272 -0.049858563 0.0061935065 -0.03274853
0.0127853835 0.004159279 0.046090256 0.03838805 0.078015976 0.04374582 -0.081543095 -0.0009952654
0.08321313 -0.07090676 0.069320254 0.08162167 0.044460166 -0.0030196656 -0.01579326 -0.026203435
-0.064833514 0.0064281174 -0.048117623 -0.0261813 0.025191728 0.034233626 0.08204311 0.060328327
-0.054995216 -0.078155026 0.012959763 -0.04247659 -0.013818438 -0.0013433695 -0.06091888 -0.055791933
-0.024112172 -0.026377648 -0.02726029 -0.008780307 -0.07843079 0.0070163296 -0.08474113 0.023585685
-0.032270897 -0.031512927 0.07779688 0.024006274 -0.047218252 -0.014481245 0.021442404 0.025206625
0.056169763 -0.008642621 -0.0101485355 0.02644451 -0.02642246 -0.04602683 -0.04172218 -0.06507861
0.022551298 0.0867444 0.021477742 -0.043643653 0.0006522289 -0.020213263 -0.073025785 0.0430355
0.084501706 0.025533333 -0.01037313 -0.07079596 -0.012487076 -0.04786436 -0.034174673 0.04252921
0.062935166 -0.07288442 0.04147 0.0717532 0.067546494 0.058978878 0.04589176 -0.0730944
-0.04059376 0.062177017 0.0095862085 0.06792227 -0.084905036 -0.025464693 0.05958842 0.061880395
-0.005610339 -0.032294907 0.02378041 0.025945943 -0.04783651 0.048979744 0.045581102 -0.08207315
-0.05602604 0.029035581 0.03758708 0.08304841 0.086317636 0.028209101 0.020578848 -0.045817968
0.012873173 -0.057665 0.08611196 -0.08554791 0.027890392 -0.052244 -0.067752965 0.058253296
0.043361906 0.0800648 0.05092354 -0.0012888442 -0.07847982 -0.06651699 -0.027098771 -0.0005466732
0.08563452 -0.0234278 0.06319543 0.05719816 -0.07358671 0.048563972 -0.07405752 -0.0638606
-0.030134972 0.040789466 0.0120738 0.009940318 -0.060401514 -0.015409105 -0.031156901 -0.025197178
0.08764098 0.033678778 -0.06987537 0.022556337 -0.04708603 -0.015146166 -0.013022637 0.0076344535
-0.009686508 0.0060976176 0.05825705 0.051654316 -0.0447544 -0.024149315 0.037882987 -0.084209606
-0.010379067 0.010763165 -0.049407143 0.019160302 0.051797513 -0.04085352 -0.018207492 0.04497157
-0.027200134 -0.0670732 -0.017823081 0.05960729 0.02404282 0.04362767 -0.059532862 -0.057447433
0.040694095 -0.06182754 -0.0071019446 0.06431321 0.049358446 -0.04963386 -0.07272496 -0.0067470814
-0.022452729 -0.05314031 -0.01597566 0.033805102 0.06616376 -0.05078303 -0.03903756 0.06023494
-0.040021162 -0.015270529 0.058635455 0.043061398 -0.037725285 -0.011538356 -0.025620958 -0.07426717
0.02559643 -0.06165851 -0.033279907 -0.026461393 0.003268996 -0.0045264885 -0.07050326 -0.06399488
00000000: 69c1 433c f863 623c 1252 cbbb 0d11 9f3d
00000010: c0a6 413b a473 55bd 511a efbc 4fa0 523d
00000020: 1179 6e3d 9fcd 43bd 406a 96ba 7544 7dbd
00000030: e3a4 67bd 32f4 acbd f0ef 8a3d aed8 e93c
00000040: a8e7 4c3c f6d2 85bd 34f0 c2bb d32c b43d
00000050: bed0 023c 670a 84bd 38ef 4ebd 0d7e 72bd
00000060: 2129 2e3d 42e7 3bbd a153 70bc 2079 113c
00000070: 9167 a9bd dbd7 28bd c256 183d a266 03bd
00000080: f662 84bd 7f61 7fbb 1822 933d 8106 58bc
00000090: d28a 8c3d 4bbd 8abc de24 6a3d 23be 86bc
000000a0: 4a78 77bd 4176 993c 9865 843d 3914 99bd
000000b0: 0871 7cbd 6d91 21bc f7df b3bd e042 ea3c
000000c0: 008d d9bb 760b 643d 7a4e 813d 49fd 8fbc
000000d0: 5ab2 40bc 7e38 4cbd e6f2 ca3b 5323 06bd
000000e0: c979 513c 904a 883b 23c9 3c3d ca3c 1d3d
000000f0: d7c6 9f3d d12e 333d 1100 a7bd 9173 82ba
00000100: a56b aa3d 9037 91bd c7f7 8d3d 4329 a73d
00000110: dd1b 363d 95e5 45bb de60 81bc 96a8 d6bc
00000120: 6fc7 84bd f5a2 d23b fc16 45bd 2a7a d6bc
00000130: e25e ce3c 8f38 0c3d 3806 a83d d61a 773d
00000140: aa42 61bd be0f a0bd 3055 543c effb 2dbd
00000150: bb66 62bc 0014 b0ba 1386 79bd 1586 64bd
00000160: e486 c5bc f015 d8bc f950 dfbc 47db 0fbc
00000170: 52a0 a0bd 3de9 e53b c28c adbd c436 c13c
00000180: 7d2e 04bd b313 01bd f853 9f3d cea8 c43c
00000190: ed67 41bd be42 6dbc fba7 af3c 207e ce3c
000001a0: 4412 663d c899 0dbc 0b46 26bc 28a2 d83c
000001b0: ea73 d8bc a186 3cbd e0e4 2abd ef47 85bd
000001c0: 80bd b83c 0ca7 b13d 17f2 af3c b0c3 32bd
000001d0: 57fa 2a3a 4996 a5bc 8b8e 95bd fe45 303d
000001e0: 3b0f ad3d 482b d13c 10f4 29bc 79fd 90bd
000001f0: 9896 4cbc 6b0d 44bd befa 0bbd 1c33 2e3d
00000200: 27e4 803d 6d44 95bd 72dc 293d 57f3 923d
00000210: d155 8a3d d693 713d 00f9 3b3d 84b2 95bd
00000220: a445 26bd 54ad 7e3d 790f 1d3c d51a 8b3d
00000230: b1e2 adbd 559b d0bc fd12 743d 4c76 7d3d
00000240: efd6 b7bb aa47 04bd 22cf c23c 968c d43c
00000250: 37f0 43bd fc9e 483d 40b3 3a3d f815 a8bd
00000260: 907b 65bd 07dc ed3c e9f4 193d 4915 aa3d
00000270: 4dc7 b03d c616 e73c f994 a83c 9fab 3bbd
00000280: 00ea 523c 2332 6cbd 785b b03d be33 afbd
00000290: 647a e43c cefd 55bd 11c2 8abd 029b 6e3d
000002a0: 419c 313d 04f9 a33d 3495 503d 6fee a8ba
000002b0: 07ba a0bd 0f3a 88bd 3efe ddbc 9e4e 0fba
000002c0: 2761 af3d a8eb bfbc 9b6c 813d 9e48 6a3d
000002d0: a1b4 96bd 04eb 463d 78ab 97bd 59c9 82bd
000002e0: 9edd f6bc db12 273d 30d1 453c b7dc 223c
000002f0: 9467 77bd 7976 7cbc c23c ffbc 506a cebc
00000300: 1d7d b33d c2f2 093d d11a 8fbd 11c8 b83c
00000310: 48dd 40bd a027 78bc e65c 55bc 702a fa3b
00000320: 29b4 1ebc 86ce c73b f29e 6e3d 7a93 533d
00000330: 6450 37bd c9d4 c5bc 312b 1b3d 1676 acbd
00000340: f60c 2abc fc57 303c 255f 4abd 11f6 9c3c
00000350: a129 543d 0556 27bd e127 95bc 1c34 383d
00000360: d1d2 debc ad5d 89bd b601 92bc c626 743d
00000370: 73f5 c43c edb2 323d bbd8 73bd 004e 6bbd
00000380: daae 263d e03e 7dbd 6eb7 e8bb a5b6 833d
00000390: 152c 4a3d e04c 4bbd d3f0 94bd 9f16 ddbb
000003a0: c9ee b7bc a7a9 59bd 63df 82bc 3877 0a3d
000003b0: de80 873d de01 50bd d9e5 1fbd eab8 763d
000003c0: 3bed 23bd 3e31 7abc bb2b 703d 2661 303d
000003d0: d485 1abd 5f0b 3dbc 0be3 d1bc 6319 98bd
000003e0: 9baf d13c a28d 7cbd 8350 08bd 90c5 d8bc
000003f0: a73c 563b f052 94bb 0364 90bd bf0f 83bd

net.2.bias f4 [64]
0.030344758 0.05799036 0.077580705 -0.03719068 0.05818611 -0.078031905 -0.07567881 0.045842886
-0.05684168 -0.014735552 0.05342348 -0.08640225 0.024402885 0.041248 -0.039334178 0.061694134
-0.07737567 -0.07232601 -0.06247785 0.031469226 -0.0077116373 0.08448164 0.003677836 0.05499268
-0.046837132 0.0023891162 0.041908037 0.08518285 0.07309403 -0.08070509 -0.034791917 0.055521876
-0.08624362 -0.01533515 0.075863644 0.064667776 -0.0109470785 -0.08436096 -0.06639791 -0.04424938
-0.048173875 -0.039492697 0.0014002996 0.047939606 0.03405326 -0.030959282 0.03416838 -0.01972947
0.0840699 0.051183395 0.059781253 0.010288215 0.07241922 0.06105403 -0.018475484 -0.0369094
-0.0039794706 0.080639884 0.041154 0.07943443 0.028882474 -0.060304478 0.0073217154 -0.026351541
00000000: 9295 f83c 4d87 6d3d a2e2 9e3d 4155 18bd
00000010: 8f54 6e3d 31cf 9fbd 7efd 9abd c0c5 3b3d
00000020: d2d2 68bd 626d 71bc 94d2 5a3d aaf3 b0bd
00000030: 8fe8 c73c aaf3 283d e01c 21bd fdb2 7c3d
00000040: 2377 9ebd a91f 94bd c6e8 7fbd e0e5 003d
00000050: e7b1 fcbb b604 ad3d d907 713b 0140 613d
00000060: 4bd8 3fbd b892 1c3b c3a7 2b3d 5974 ae3d
00000070: 53b2 953d b648 a5bd f881 0ebd e86a 633d
00000080: 7fa0 b0bd 4840 7bbc 665e 9b3d 8a70 843d
00000090: 605b 33bc 70c5 acbd a1fb 87bd d63e 35bd
000000a0: f851 45bd 18c3 21bd 428a b73a 525c 443d
000000b0: 6e7b 0b3d 529e fdbc 25f4 0b3d b39f a1bc
000000c0: d72c ac3d aea5 513d 30dd 743d e78f 283c
000000d0: 8750 943d ca13 7a3d e659 97bc 502e 17bd
000000e0: 3866 82bb 8626 a53d 1991 283d 85ae a23d
000000f0: f09a ec3c d401 77bd 00eb ef3b 30df d7bc

net.4.weight f4 [30, 64]
0.01788024 0.081917964 -0.07750899 -0.011175101 0.070463985 -0.06614003 -0.11569274 0.09917387
-0.031153511 0.11630667 0.018002676 0.04698718 -0.052162196 0.04222499 -0.07651727 0.038313385
-0.06577295 0.09621012 0.10295117 -0.0398681 -0.02916675 -0.06468914 -0.050710365 -0.057170954
0.08349569 -0.01703395 -0.022770798 -0.055660024 0.03511372 -0.0078479415 -0.013004645 0.042076256
0.016277298 0.08418169 0.123512335 -0.008923369 0.048666656 0.029470196 -0.030108495 0.11844486
0.11257294 0.04637409 0.027762167 -0.028397365 0.01420066 0.018624123 0.08427438 0.0921158
-0.09274075 0.0022328773 -0.105276704 -0.032625873 -0.03152684 0.0032206008 0.04812213 0.051799495
-0.020157617 0.08692084 -0.05253249 -0.015842577 -0.08590987 -0.09622374 0.08569922 -0.10844084
-0.043932423 0.007976969 0.103220366 0.08301407 0.02716304 -0.027709706 0.12409305 -0.06814049
0.06115819 -0.082420886 -0.09855768 -0.01626354 -0.06803108 0.10024409 0.11928264 -0.116489425
-0.040146813 -0.10181948 0.108032465 -0.048951596 -0.07573951 0.04059199 0.10943306 -0.11569391
-0.04593249 0.030891107 0.098070696 -0.014348004 -0.10418886 -0.006699769 0.03335014 -0.1150308
-0.035064295 -0.011026771 -0.012238517 -0.06518567 -0.0032122906 -0.01408279 0.057416905 0.009727653
-0.07880692 -0.11580585 0.099369526 0.026891768 0.006612918 -0.123406224 0.03037297 -0.062444843
-0.10151031 -0.032495573 -0.008163322 -0.106166646 -0.026782222 0.057591297 -0.042573113 -0.12029651
0.09990165 -0.0052714483 0.072067074 -0.010403772 0.04761006 0.019094829 -0.06275184 0.05749705
-0.032182533 -0.11323768 0.11479543 0.016591229 0.09627645 -0.11373883 0.11523051 -0.06985159
0.007564315 -0.0744589 0.0041226954 0.10279606 0.0065748855 -0.08566156 0.06785725 -0.117915206
-0.023498807 -0.088944726 0.07275532 0.11888315 -0.05733633 -0.0065722973 0.09889567 0.0040902803
0.102194645 0.021982485 0.008923785 -0.013213343 0.11731519 -0.12332735 0.07487343 0.07965071
0.09534046 -0.057818666 -0.11305745 0.073675215 -0.075287804 0.02396021 -0.113840654 0.054258835
0.030197311 -0.08085833 0.040264297 -0.00096189335 0.09158908 -0.08612568 0.018400064 0.0013427971
-0.10770163 -0.12425509 0.031752355 0.02171052 -0.056592397 -0.110612184 -0.055456717 -0.02754025
0.08561201 -0.10000761 -0.0777577 0.039842457 0.054083034 0.039826166 -0.10162284 0.07247064
0.119716376 -0.07682282 0.09407483 0.0334633 0.08210992 -0.11175036 -0.03244621 0.0030740849
0.0103772385 0.07847969 -0.016358247 -0.08787581 0.12030196 -0.0055851955 0.008780665 -0.12045599
0.058863707 -0.098246135 -0.032493558 -0.0937355 0.057013005 0.11181413 -0.10553532 0.07972453
0.034307253 0.11193244 -0.023437507 0.08039149 -0.09386672 -0.09051009 0.09682883 0.07082642
0.06711539 -0.05288455 -0.07924786 0.028447691 0.049938884 -0.09421321 -0.013508937 0.083567746
-0.056007233 -0.06905894 -0.036618687 0.075794876 -0.09409931 -0.05045683 -0.041257646 0.029834483
0.09821826 -0.021600323 -0.057185814 -0.05775322 -0.11118539 -0.102373146 -0.027277213 -0.009612965
0.01141343 0.0971251 0.071497954 -0.08305861 -0.045720577 -0.026141325 0.04020424 -0.00968458
00000000: 9579 923c 9bc4 a73d 09bd 9ebd c517 37bc
00000010: 6c4f 903d 6d74 87bd 51f0 ecbd ac1b cb3d
00000020: a635 ffbc 3132 ee3d 597a 933c a175 403d
00000030: 07a8 55bd 1cf4 2c3d 16b5 9cbd 7fee 1c3d
00000040: f8b3 86bd d009 c53d 10d8 d23d bc4c 23bd
00000050: 1cef eebc bd7b 84bd acb5 4fbd 172c 6abd
00000060: caff aa3d c88a 8bbc d389 babc c4fb 63bd
00000070: 67d3 0f3d a794 00bc 6f11 55bc 2758 2c3d
00000080: f857 853c 7367 ac3d 09f4 fc3d 5333 12bc
00000090: b056 473d 7b6b f13c 17a6 f6bc 3893 f23d
000000a0: a48c e63d c2f2 3d3d 7c6d e33c 97a1 e8bc
000000b0: e3a9 683c 9e91 983c 0c98 ac3d 35a7 bc3d
000000c0: ddee bdbd 7755 123b 509b d7bd b5a2 05bd
000000d0: 4a22 01bd b710 533b b61b 453d b52b 543d
000000e0: 9621 a5bc 8e03 b23d 4f2c 57bd 4bc8 81bc
000000f0: 84f1 afbd f410 c5bd 1383 af3d 3b16 debd
00000100: 7cf2 33bd d5b1 023c 3365 d33d 4803 aa3d
00000110: 0685 de3c 77ff e2bc 7f24 fe3d 3e8d 8bbd
00000120: 0381 7a3d 48cc a8bd 9cd8 c9bd 1e3b 85bc
00000130: e153 8bbd c64c cd3d 754a f43d 0292 eebd
00000140: fc70 24bd bb86 d0bd 2040 dd3d 7881 48bd
00000150: 511d 9bbd c943 263d 711e e03d eef0 ecbd
00000160: b523 3cbd 590f fd3c 4ad9 c83d e413 6bbc
00000170: f860 d5bd bc89 dbbb 289a 083d 4595 ebbd
00000180: 949f 0fbd a1a9 34bc 1084 48bc 1180 85bd
00000190: 4b85 52bb 81bb 66bc fd2d 6b3d bc60 1f3c
000001a0: 8665 a1bd 9e2b edbd 4082 cb3d 204c dc3c
000001b0: 2db1 d83b 67bc fcbd bcd0 f83c 2ac6 7fbd
000001c0: a3e4 cfbd 141a 05bd 74bf 05bc e66d d9bd
000001d0: 6466 dbbc dae4 6b3d 2561 2ebd 045e f6bd
000001e0: 3c99 cc3d 1dbc acbb e797 933d 9574 2abc
000001f0: c402 433d c26c 9c3c 0984 80bd 0782 6b3d
00000200: d5d1 03bd 28e9 e7bd de19 eb3d 54ea 873c
00000210: 962c c53d e7ef e8bd f9fd eb3d 5a0e 8fbd
00000220: 13de f73b e87d 98bd ad17 873b be86 d23d
00000230: 2372 d73b 546f afbd bef8 8a3d 877d f1bd
00000240: 9280 c0bc a728 b6bd be00 953d 0279 f33d
00000250: 80d9 6abd 6d5c d7bb d089 ca3d c207 863b
00000260: 6d4b d13d 9d14 b43c 1135 123c c77c 58bc
00000270: f242 f03d 0d93 fcbd 3e57 993d e91f a33d
00000280: dc41 c33d 44d3 6cbd aa8a e7bd 08e3 963d
00000290: 7e30 9abd 3448 c43c 4a25 e9bd 833e 5e3d
000002a0: 5a60 f73c 0d99 a5bd 2dec 243d 9227 7cba
000002b0: 0e93 bb3d a962 b0bd bbbb 963c cb00 b03a
000002c0: ac92 dcbd 7479 febd c20e 023d 43da b13c
000002d0: 6ecd 67bd a488 e2bd 9526 63bd 179c e1bc
000002e0: 5955 af3d cad0 ccbd 6e3f 9fbd d831 233d
000002f0: 2c86 5d3d c320 233d a31f d0bd 7d6b 943d
00000300: dc2d f53d 4855 9dbd 4eaa c03d d010 093d
00000310: 3f29 a83d 5fdd e4bd 51e6 04bd 9676 493b
00000320: 4b05 2a3c f6b9 a03d bb01 86bc 3cf8 b3bd
00000330: e060 f63d 0404 b7bb c7dc 0f3c a1b1 f6bd
00000340: 121b 713d 4535 c9bd f717 05bd 66f8 bfbd
00000350: 7886 693d cefe e43d e722 d8bd 9d46 a33d
00000360: c385 0c3d d63c e53d 0400 c0bc 4ba4 a43d
00000370: 323d c0bd 5b5d b9bd 324e c63d 710d 913d
00000380: cb73 893d 789d 58bd b44c a2bd 220b e93c
00000390: b78c 4c3d dbf2 c0bd 9754 5dbc 9125 ab3d
000003a0: d767 65bd c66e 8dbd 7afd 15bd 583a 9b3d
000003b0: 24b7 c0bd d2ab 4ebd c7fd 28bd 7267 f43c
000003c0: a826 c93d 29f3 b0bc ac3b 6abd a48e 6cbd
000003d0: 2ab5 e3bd 03a9 d1bd 7674 dfbc b37f 1dbc
000003e0: 65ff 3a3c 86e9 c63d 856d 923d a21a aabd
000003f0: 8045 3bbd 5526 d6bc 33ad 243d 13ac 1ebc

net.4.bias f4 [30]
0.07201884 0.08668482 0.07921095 0.06307321 0.022636266 -0.10082449 -0.112771444 0.07139701
0.012809224 0.013179549 -0.011151785 0.039044987 0.04438598 0.06107975 -0.12332887 -0.07651262
0.12356297 -0.018437525 -0.06367851 0.02881485 -0.013273461 0.026960054 0.12227503 -0.0022065688
-0.0655371 0.030371688 -0.1209352 -0.021951634 -0.0217711 -0.087370396
00000000: 9d7e 933d d087 b13d 5a39 a23d 872c 813d
00000010: b16f b93c 127d cebd b7f4 e6bd 9838 923d
00000020: c8dd 513c 09ef 573c fab5 36bc a3ed 1f3d
00000030: 13ce 353d c32e 7a3d d993 fcbd a6b2 9cbd
00000040: 950e fd3d 4b0a 97bc e169 82bd 1f0d ec3c
00000050: ee78 59bc 55db dc3c 556b fa3d 159c 10bb
00000060: 5138 86bd 0cce f83c e0ac f7bd ead3 b3bc
00000070: 4e59 b2bc 40ef b2bd
