finrl/papertrading_erl_retrain/actor.pth (torch, 214017 bytes, 7 tensors)

action_std_log f4 [1, 30]
0	0x390bebfc	0.00013343984
1	0xb98f091e	-0.00027281878
2	0x3a236bd8	0.00062340265
3	0x39868a68	0.00025661592
4	0x39c0d7da	0.00036781916
5	0x3a4229b7	0.00074067287
6	0x3a4f8f94	0.0007917818
7	0x39b556a6	0.00034587568
8	0x39df5a62	0.00042601215
9	0x3a3ee24d	0.0007281646
10	0x39e70af7	0.00044067923
11	0x3a146183	0.00056602823
12	0x3989efe3	0.00026309406
13	0x39a4e1cb	0.00031448746
14	0x398f94b9	0.00027385892
15	0x3a0aa171	0.0005288339
16	0x3a3217bf	0.00067936996
17	0x3a17e2e5	0.0005794003
18	0x39b3ecbe	0.00034317927
19	0x39d741c0	0.00041056983
20	0x39bcce5c	0.00036011904
21	0x3a399b64	0.0007080345
22	0x398e6036	0.00027156033
23	0x396abbf4	0.00022385997
24	0x3a08a048	0.0005211872
25	0x39ee69b5	0.00045473655
26	0x39d59e83	0.00040744626
27	0x3a0b9816	0.0005325092
28	0x39d248d4	0.00040108582
29	0x3a0d94b3	0.0005400881

net.0.weight f4 [128, 333]
0	0x3d54e0ba	0.05197213
1	0xbd5916ae	-0.053000145
2	0xbc5c58b0	-0.013448879
3	0x3d3c4bd0	0.045970738
4	0x3ac4e1b0	0.0015020873
5	0x3d5d0866	0.053963087
6	0xbd2a22e1	-0.04153717
7	0x3d5de5de	0.054174297
8	0xbb2c1678	-0.002625851
9	0x3d4a7ee3	0.049437415
10	0x3d0a31a2	0.03373874
11	0x3d42b64a	0.047537126
12	0x3d1f06b0	0.038824737
13	0xbc177fe9	-0.009246805
14	0xbcaffb1b	-0.021482041
15	0x3ca60912	0.020267997
16	0xbd2f0710	-0.042731345
17	0xbc9f0e14	-0.019415893
18	0x3ca78397	0.02044849
19	0x3cb3bfe3	0.021942085
20	0x3d5a03fe	0.053226463
21	0xbc9377e4	-0.018001504
22	0xbd008775	-0.031379182
23	0x3d0d5f2f	0.034514602
24	0x3cbf6c0c	0.02336695
25	0xbcc51983	-0.024060016
26	0xbcad17c9	-0.021129506
27	0x3d5e954c	0.0543416
28	0xbd243c77	-0.040096726
29	0xbd2b8de8	-0.04188338
30	0x3c7262c2	0.0147940535
31	0xbcb89d73	-0.022536015
32	0x3d5d70ec	0.05406277
33	0xbcb15778	-0.021648154
34	0xbd5ce603	-0.053930294
35	0x3bc065be	0.0058715036
36	0xbd105cd5	-0.03524478
37	0xbd278a1e	-0.040903203
38	0x3d32c170	0.043641508
39	0x3d16de96	0.03683337
40	0xbd3f71e9	-0.046739493
41	0xba03e867	-0.0005031884
42	0xbc95f65e	-0.018305954
43	0x3d40ac8a	0.047039546
44	0x3d18a7f0	0.037269533
45	0x3d19874b	0.03748254
46	0xbd41d578	-0.04732272
47	0xbc9ad30d	-0.018899465
48	0xbc761499	-0.015019559
49	0x3ce2325e	0.027611908
50	0x3d04b9ca	0.032403745
51	0xbd0eb49c	-0.03484021
52	0xbc5fffd7	-0.013671837
53	0xbd0334af	-0.032032665
54	0x3cfadf02	0.030623917
55	0xbc8e2ed9	-0.017356323
56	0x3ca1ff69	0.01977511
57	0xbd2302e0	-0.039797664
58	0x3ce9bbae	0.028531875
59	0x3b236858	0.002493402
60	0x3d1a0554	0.037602738
61	0xbd4dbc54	-0.05022843
62	0xbd0df7a8	-0.03466001
63	0xbcac1ae2	-0.021008912
64	0x3d2e4f7b	0.042556267
65	0x3d4f79a5	0.05065312
66	0x3d3a7117	0.045518007
67	0xbba41c45	-0.005008253
68	0xbd1059d9	-0.035241935
69	0x3d09782d	0.033561874
70	0x3cc5b6b2	0.024134967
71	0xbd2a26cf	-0.041540917
72	0xbd341bf0	-0.043971956
73	0x3d10d71c	0.035361394
74	0xbd3078c3	-0.043083917
75	0xbd3bba44	-0.045831934
76	0x3c8643fe	0.016389843
77	0xbd0740dc	-0.03302084
78	0x3ca5099b	0.020146182
79	0x3d2de0af	0.042450603
80	0x3d5787f7	0.0526199
81	0x3be33e6e	0.0069349324
82	0xba79a09d	-0.00095225294
83	0xbd2adbc2	-0.041713484
84	0xbd34a8dc	-0.04410635
85	0x3cfa59c9	0.030560391
86	0xbcf457d3	-0.029827034
87	0xba6d0891	-0.0009042109
88	0xbcbfe15a	-0.023422886
89	0x3d1abcda	0.03777776
90	0x3c70f6a6	0.014707243
91	0xbbb2318f	-0.0054380368
92	0x3d3133a2	0.04326213
93	0x3d351663	0.044210803
94	0xbd44935f	-0.047992107
95	0x3d2a0968	0.041512877
96	0xbd37329a	-0.04472599
97	0xbbdce307	-0.006740931
98	0xbd480696	-0.048834406
99	0x3cbc0f1d	0.022956425
100	0x3ce2491d	0.027622754
101	0x3d30e3a1	0.043185834
102	0xbcfee17a	-0.031113375
103	0x3c04ae3e	0.008098183
104	0x3c2458bc	0.010030922
105	0x3caa18f2	0.020763848
106	0xbca5c485	-0.02023531
107	0x3a98c2f1	0.0011654777
108	0xbd0ac4d5	-0.03387912
109	0x3c7e5ae0	0.015524596
110	0xbd495991	-0.049157683
111	0x3ccbfb6b	0.024900159
112	0x3d11f8f9	0.03563783
113	0x3c5fc480	0.013657689
114	0x3d0213a0	0.031756997
115	0xbc4d21da	-0.012520278
116	0x3b0690c0	0.0020533055
117	0x3cd92aef	0.02650973
118	0x3d42c014	0.04754646
119	0xbd4cb469	-0.04997674
120	0xbc9d35dd	-0.019190723
121	0xbc599d54	-0.013282139
122	0xbc5c38fe	-0.013441322
123	0xbc0b92aa	-0.008518854
124	0xbbe9c9c1	-0.0071346466
125	0xbc2c8c33	-0.010531473
126	0xbcce7641	-0.025202872
127	0x3d1968d3	0.037453484
128	0x3c074b98	0.008257769
129	0x3b7f3f6b	0.0038947712
130	0xbcd428da	-0.025898386
131	0x3bfcc22b	0.0077135763
132	0x3cb6b333	0.022302246
133	0x3cd21520	0.025644839
134	0xbc1b3401	-0.009472848
135	0xbd3fbdf5	-0.046812017
136	0xbbe0db09	-0.0068620485
137	0xbbe3bc58	-0.0069499426
138	0x3baef1b8	0.0053388737
139	0xbbf311a5	-0.007417875
140	0xbd0e550f	-0.034749087
141	0xbd05ccda	-0.032666065
142	0xbcf052df	-0.029336391
143	0x3b337cdb	0.0027387652
144	0xbc9ebcf2	-0.019377206
145	0xbd2a2989	-0.041543517
146	0xbc9b5d2f	-0.018965332
147	0xbca8a9a2	-0.0205887
148	0xbd0c1aa5	-0.034205098
149	0xbcd0cb49	-0.025487559
150	0x3cb1bfe4	0.021697946
151	0x3c48832f	0.012238308
152	0x3b064278	0.0020486396
153	0xbd4251e7	-0.04744139
154	0x3c66756d	0.014066082
155	0x3c41d438	0.011830382
156	0x3d100807	0.035163905
157	0xbca4ed06	-0.020132553
158	0x3ac84aab	0.0015281042
159	0x3d2f25db	0.04276071
160	0x3d472da8	0.048627526
161	0xbd0aaa9a	-0.033854105
162	0xbc16a901	-0.009195567
163	0x3c10805e	0.008819668
164	0xbd2e0d80	-0.042493343
165	0x3c411cf0	0.011786684
166	0x3cc560c7	0.024093999
167	0xbc8305e2	-0.015994016
168	0xbd3757cc	-0.044761464
169	0x3a871735	0.0010306599
170	0x3d036c23	0.03208555
171	0xbd1309cc	-0.035898015
172	0xbc841d8a	-0.016127367
173	0x3c89a9b9	0.016804563
174	0x3cd48bae	0.02594551
175	0x3c429685	0.011876707
176	0xbcb813e3	-0.02247042
177	0xbce2cc24	-0.027685232
178	0x3d4c34cd	0.049855042
179	0xbd0e1f83	-0.03469802
180	0xbc8ca82c	-0.017170034
181	0x3d119171	0.035539094
182	0xbd0b4406	-0.03400042
183	0x3cc82b53	0.024434721
184	0xbd2051d3	-0.039140534
185	0xbd4c3bf8	-0.04986188
186	0x3cfa86b3	0.030581808
187	0xbc9f86a7	-0.019473387
188	0x3d1be2ae	0.038057975
189	0x3c88d328	0.01670225
190	0x3b3496da	0.0027555735
191	0xbcaa9b52	-0.020826016
192	0x3ce840a1	0.02835113
193	0x3d492fee	0.049117975
194	0x3bc115d6	0.0058924956
195	0xbd4032d6	-0.04692348
196	0x3ce4c5d9	0.027926372
197	0x3ca95b3f	0.020673392
198	0x3cfa4354	0.030549683
199	0x39196f0b	0.00014632584
200	0xbb78aff2	-0.0037946668
201	0xbd30b724	-0.043143407
202	0x3c373809	0.011182793
203	0x3cc8b2f2	0.02449939
204	0x3d2e2629	0.04251686
205	0xbd533d08	-0.051571876
206	0xbb5036c2	-0.003177092
207	0x3b4c3dd9	0.0031164794
208	0x3d00aa9b	0.031412702
209	0x3c736b55	0.014857133
210	0x3d413e61	0.04717863
211	0x3d34976f	0.04408973
212	0xbbf107c4	-0.007355662
213	0xbc2339cb	-0.009962509
214	0xbb45bd3f	-0.0030172614
215	0xbc72a2b4	-0.014809299
216	0xbbd137bb	-0.0063848174
217	0xbd211492	-0.039326258
218	0xbd1ec6c9	-0.038763795
219	0xbcfd9571	-0.030955048
220	0xbd4bf882	-0.049797542
221	0x3d33e157	0.043916073
222	0xbd2c3477	-0.042042222
223	0x3ca1cb99	0.019750403
224	0xbaa982f7	-0.0012932707
225	0x3c4d452e	0.012528701
226	0xbd4af017	-0.049545374
227	0xbc13bb22	-0.009016784
228	0xbd573962	-0.05254496
229	0x3d4578b5	0.04821082
230	0xbab2877f	-0.0013620703
231	0xbd244187	-0.040101554
232	0xbcea23a9	-0.028581457
233	0xbc84373c	-0.016139619
234	0x3d2a0a30	0.04151362
235	0xbc804a79	-0.015660511
236	0xbcbdcb36	-0.023168188
237	0x3ce69a38	0.02814971
238	0x3c397553	0.011319476
239	0x3d174451	0.036930386
240	0xbd4108b6	-0.047127448
241	0xbc21af54	-0.009868462
242	0xbb8bfd94	-0.004272172
243	0x3d067beb	0.03283302
244	0xbc68c733	-0.014207649
245	0xbd1e647c	-0.038670048
246	0xbcd99af3	-0.026563143
247	0xbd03f0ce	-0.03221207
248	0xbcf00024	-0.029296942
249	0x3d555382	0.052081592
250	0xbd6013bd	-0.054706324
251	0xbd438419	-0.0477334
252	0x3c4c2e40	0.012462199
253	0x3d1aeea9	0.03782526
254	0xbce8a5f1	-0.02839944
255	0x3bce6f6c	0.0062999036

net.0.bias f4 [128]
0	0x3c725f3b	0.0147932125
1	0x3d09268f	0.033484038
2	0xbd144c24	-0.036205426
3	0xbd4bab7f	-0.0497241
4	0xbceab735	-0.028651813
5	0x3bb2da36	0.0054581417
6	0xbd514a5c	-0.051096305
7	0xbd3aeccc	-0.045635983
8	0xbc8b7426	-0.017023157
9	0xbd360483	-0.044437896
10	0x3d3c6698	0.04599628
11	0xbc51499e	-0.012773899
12	0xba8b1260	-0.0010610335
13	0xbcb085c1	-0.021548154
14	0x3d3d539b	0.04622231
15	0xbc86a865	-0.016437719
16	0xbd5ca167	-0.053864863
17	0xbd059ac1	-0.032618288
18	0x3bb469d0	0.005505778
19	0x3c6ea265	0.014565085
20	0x3d26e627	0.040746834
21	0xbce926d8	-0.028460905
22	0x3ce955e7	0.028483344
23	0x3c9da752	0.019244824
24	0xbbf6d247	-0.007532391
25	0x3c6fcaeb	0.014635782
26	0x3d049552	0.032368965
27	0x3d4e7a03	0.05040933
28	0xbc0d1ec6	-0.008613294
29	0x3d23a306	0.039950393
30	0xbd1caedc	-0.038252696
31	0x3cd86aa8	0.026418045
32	0x3b1ccbcd	0.0023925186
33	0xbb02d50e	-0.0019963416
34	0x3cc98754	0.024600662
35	0x3b97e3da	0.0046353163
36	0x3d129590	0.035787165
37	0xbbe9343c	-0.0071168225
38	0x3d01301c	0.03154002
39	0xbbbbe136	-0.0057336343
40	0x3d481911	0.04885203
41	0x3c03a7e8	0.008035637
42	0x3ce7840e	0.02826121
43	0xbd54966e	-0.051901273
44	0xbcb0badb	-0.021573475
45	0xbcc86f9f	-0.024467288
46	0xbc973c40	-0.018461347
47	0x3c003865	0.0078259455
48	0x3d27c857	0.040962543
49	0xbca6aad1	-0.020345123
50	0x3d1572f9	0.0364866
51	0xbb435761	-0.002980672
52	0x3d2ba132	0.041901775
53	0x3bda0091	0.0066528996
54	0xbc7b7f88	-0.01535023
55	0x3c913584	0.017725714
56	0x3d0ac3b5	0.033878047
57	0x3a5a7f29	0.00083349884
58	0x3c90780b	0.017635366
59	0x3c9df3a2	0.019281212
60	0xbd02b9c9	-0.03191546
61	0x394dd3aa	0.00019629174
62	0xbd4f3b68	-0.050593764
63	0xbc373217	-0.011181376
64	0xbc29ac49	-0.010356017
65	0xbc1160d2	-0.008873181
66	0x3d258d08	0.0404177
67	0x3d477ea5	0.048704762
68	0x3d4e4b93	0.050365042
69	0x3d5da49b	0.054112058
70	0xbd28bf8a	-0.04119829
71	0x3c8572b7	0.016290052
72	0xbd131ad5	-0.03591426
73	0x3d578b81	0.052623276
74	0xbd169b96	-0.036769472
75	0xbd21cdc9	-0.039502893
76	0xbcfe559e	-0.031046685
77	0xbd401420	-0.046894193
78	0xbd113cb6	-0.03545829
79	0x3cb50494	0.02209691
80	0xbd5a23de	-0.053256862
81	0x3b898acd	0.0041974545
82	0xbcbbf803	-0.02294541
83	0x3d165b4a	0.036708154
84	0x3c85555d	0.016276056
85	0xbc4806ad	-0.012208623
86	0xbc8386ba	-0.016055454
87	0x3ccdd870	0.02512762
88	0xbbef297d	-0.007298647
89	0xbd5cdcee	-0.053921632
90	0x3d03fcfb	0.032223683
91	0x3b1561cb	0.0022793885
92	0xbc786747	-0.015161342
93	0x3c9a280b	0.018817922
94	0xbcae955c	-0.021311454
95	0x3d462eb5	0.048384387
96	0xbca38e25	-0.01996524
97	0xbcb722b9	-0.022355424
98	0x3d079e5d	0.03311001
99	0x3cf3d67b	0.029765358
100	0xbd53d637	-0.051717963
101	0xbc2bf296	-0.010494849
102	0xbce7e140	-0.02830565
103	0xbd5bb207	-0.053636577
104	0x3af3ff0c	0.0018615439
105	0x3d0b1034	0.033951
106	0xbd1f3fd3	-0.038879227
107	0xbd32d015	-0.043655474
108	0x3d54b350	0.05192882
109	0xbcbb9624	-0.022898741
110	0x3c990bc2	0.018682364
111	0x3b7059e5	0.0036674675
112	0x3d626e63	0.055281054
113	0x3cd11a8f	0.02552536
114	0x3ce36498	0.027757928
115	0x3cef3fe0	0.029205263
116	0x3ce4bf5c	0.027923279
117	0xbcce4668	-0.025180057
118	0x3ccaf3c4	0.02477444
119	0xbd53eeb7	-0.051741328
120	0x3d0cf95c	0.034417495
121	0xbd125849	-0.035728727
122	0xbcce7971	-0.025204392
123	0xbb0a86c1	-0.0021137448
124	0xbb75437c	-0.0037424257
125	0x3c569534	0.013097096
126	0x3bf2c27a	0.0074084373
127	0x3cee5fc3	0.029098397

net.2.weight f4 [64, 128]
0	0x3d84f839	0.06492657
1	0x3d85540e	0.06510173
2	0xbc4c6593	-0.012475389
3	0x3d9bf31d	0.076147296
4	0xbb999f64	-0.0046881903
5	0x3d90015a	0.07031508
6	0x3d7d9790	0.06191212
7	0xbc935cd2	-0.017988596
8	0xbc95c83f	-0.018283961
9	0xbd010a04	-0.031503692
10	0xbd587319	-0.05284414
11	0x3da7e559	0.081980415
12	0x3d3def86	0.046371005
13	0x3c887d16	0.016661208
14	0x3d937417	0.07199877
15	0x3bb23a70	0.005439095
16	0xbd4bb157	-0.04972967
17	0xbd58690d	-0.05283456
18	0xbd972f05	-0.07382015
19	0xbcdcc02a	-0.0269471
20	0x3d19ce1c	0.037550077
21	0xbd9d6956	-0.07686107
22	0xbc0b34f6	-0.008496514
23	0x3bb37c76	0.0054774834
24	0xbb3dc5e8	-0.0028957073
25	0x3c29c08b	0.010360847
26	0xbd7f5043	-0.062332403
27	0x3d9ce261	0.07660366
28	0xbd3e5bd0	-0.046474278
29	0x3d0fe950	0.035134614
30	0x3c8b33a0	0.01699239
31	0xbd98a473	-0.07453241
32	0xbd4cfb9f	-0.050044652
33	0xbd612a95	-0.05497225
34	0x3d9f8ec5	0.07790903
35	0x3d931ba7	0.07183009
36	0xbc268d47	-0.010165519
37	0x3d2227fe	0.03958892
38	0xbd4c4de4	-0.04987897
39	0xbd0a38ae	-0.03374546
40	0xbd9218e4	-0.07133654
41	0xbd316b6a	-0.04331533
42	0x3cb0f2db	0.021600178
43	0x3d1d5a98	0.038416475
44	0xbc79d677	-0.015248886
45	0xbcf1e6b2	-0.02952895
46	0xbd81880c	-0.06324777
47	0x3cd5a10a	0.026077766
48	0xbcae11d5	-0.021248737
49	0xbd6fd14a	-0.058549203
50	0x3daf9395	0.08573071
51	0x3d5a95fd	0.053365696
52	0x3d2c523e	0.04207062
53	0xbcdf5ab5	-0.027264932
54	0xbd6c1d12	-0.05764491
55	0x3cd3e1b5	0.025864461
56	0x3d10681b	0.035255533
57	0xbc3996e8	-0.011327483
58	0x3d85cc0f	0.06533062
59	0xbdaf1b66	-0.08550148
60	0xbd431bc5	-0.047633905
61	0x3d2bf3b1	0.04198045
62	0xbd92eb8d	-0.07173834
63	0xbda767cf	-0.08174097
64	0xbd9894e0	-0.07450271
65	0x3cb69f9f	0.02229291
66	0x3d4d2c45	0.050091047
67	0xbda98f8e	-0.08279334
68	0x3cf96889	0.030445354
69	0x3d897571	0.06711853
70	0xbbb10e18	-0.0054032914
71	0xbdb3b4ec	-0.087747425
72	0x3da54265	0.080693044
73	0xbd3e92bd	-0.04652666
74	0xbba6ce27	-0.0050904932
75	0xbd4600c4	-0.048340574
76	0xbbff7fdd	-0.007797225
77	0x3b689940	0.0035491735
78	0x3a75bc1c	0.0009374039
79	0x3d66b799	0.056327436
80	0xbd14a4ec	-0.036290094
81	0xbd5722c7	-0.0525234
82	0x3cfab744	0.030604966
83	0xbd631ff3	-0.05545039
84	0x3d80e066	0.062928006
85	0x3da64fb8	0.08120674
86	0xbd20b492	-0.039234705
87	0x3da8ddb5	0.08245412
88	0xbd89d96e	-0.067309245
89	0xbccdbe3c	-0.025115125
90	0xbda77d0f	-0.0817815
91	0x3c8586cf	0.016299633
92	0x3c6bd9f3	0.014395225
93	0xbd55d875	-0.052208383
94	0x3b277d7c	0.0025556972
95	0x3b89e80b	0.00420857
96	0x3cefef30	0.029288858
97	0xbd114cd3	-0.035473656
98	0x3b4d00f6	0.003128109
99	0xbd0d4e47	-0.03449848
100	0xbd160698	-0.036627382
101	0xbc19d7e4	-0.009389851
102	0x3d9416be	0.072309
103	0x3da17597	0.078837566
104	0xbd2e42f6	-0.042544328
105	0x3c6db044	0.014507357
106	0x3c86d082	0.016456846
107	0x3d964f8c	0.07339391
108	0x3d1a3257	0.037645664
109	0x3d76a95d	0.06022011
110	0xbdac443c	-0.08411452
111	0xbc5d867a	-0.013520831
112	0x3d6bbc95	0.057552893
113	0xbc98341b	-0.018579533
114	0xbcd0f623	-0.025507992
115	0x3d92e102	0.07171823
116	0x3d82c4b0	0.063851714
117	0xbd9a283f	-0.075272076
118	0x3d90d65e	0.07072137
119	0xbd997924	-0.07493809
120	0xbda89161	-0.08230854
121	0x3d4fdab3	0.050745677
122	0x3da3e056	0.08001773
123	0xbd1cec09	-0.03831104
124	0xbcbaadc0	-0.022787929
125	0xbc0e4e44	-0.008685652
126	0xbd8fe056	-0.070252106
127	0xbd19e149	-0.037568364
128	0xbd6ee7ae	-0.058326416
129	0xbcf469dc	-0.029835634
130	0x3ccd0fc1	0.025031926
131	0xbc83bd66	-0.016081523
132	0xbcd81326	-0.026376318
133	0xbd893667	-0.066998295
134	0x3c4b584e	0.01241119
135	0xbd175c72	-0.036953397
136	0x3d3a0959	0.04541907
137	0x3d5a1132	0.053239055
138	0xbcea0ff9	-0.02857207
139	0xbb9f1a4a	-0.004855429
140	0xbd9752df	-0.07388853
141	0x3dac3fae	0.084105834
142	0x3d7cbcbc	0.06170343
143	0x3daed0cd	0.08535919
144	0x3dabd2d5	0.083898224
145	0x3d613281	0.054979805
146	0xbd672c85	-0.05643894
147	0xbd104af2	-0.035227723
148	0x3d52370b	0.051322024
149	0x3d0dedba	0.03465054
150	0xbcc8aeee	-0.024497475
151	0xbce6c1eb	-0.02816864
152	0xbd450b7b	-0.04810665
153	0xbd9fa8b1	-0.07795847
154	0xbda7cafb	-0.08193012
155	0xbc4d42b5	-0.012528111
156	0xbc834290	-0.01602295
157	0xbc905dd1	-0.01762286
158	0x3da1574d	0.078779794
159	0xbd5be2af	-0.05368298
160	0x3d8bd564	0.068278104
161	0x3b9c9dde	0.0047795614
162	0x3c5a75c2	0.01333374
163	0xbda0795e	-0.07835649
164	0x3d86d25d	0.06583092
165	0x3cef1388	0.029184118
166	0xbd8a9595	-0.06766812
167	0xbc6c190e	-0.01441027
168	0xbdb49432	-0.088173285
169	0xbcbe7736	-0.023250204
170	0x3cf489c7	0.029850854
171	0x3d96840d	0.073494054
172	0xbd2958b5	-0.041344363
173	0xbdb498bc	-0.08818194
174	0x3d49b9fa	0.049249627
175	0x3c95667d	0.018237347
176	0x3d31b86b	0.043388765
177	0xbc5e5582	-0.013570191
178	0xbd1dc590	-0.03851849
179	0x3d09264f	0.0334838
180	0x3d713f41	0.058898214
181	0x3bd3aec5	0.006460043
182	0xbcf40505	-0.02978755
183	0x3da6d9cb	0.081470095
184	0xbda6958b	-0.08133992
185	0x3d7ccf08	0.061720878
186	0x3d9bbf3a	0.07604833
187	0x3d8e0cfb	0.069360696
188	0xbc094c34	-0.008379985
189	0x3d0c0e39	0.03419325
190	0xbd8db7c4	-0.06919816
191	0xbd484ab3	-0.048899364
192	0xbcc76bee	-0.024343457
193	0xbd8aedfa	-0.06783672
194	0x3d5310d1	0.05152971
195	0xbd7b5202	-0.061357506
196	0x3da4237c	0.080145806
197	0xbd212243	-0.039339315
198	0xbc910361	-0.017701807
199	0x3d948d9c	0.07253572
200	0x3a97c9e1	0.001158055
201	0x3d5c58d4	0.05379565
202	0x3cef9434	0.029245473
203	0xbd9e4efa	-0.07729907
204	0xbd1a1f21	-0.037627343
205	0x3d8f7f19	0.07006664
206	0xbd13b6b8	-0.036062926
207	0xbd5db805	-0.054130573
208	0xbba11a9b	-0.0049165017
209	0xbd7fe83c	-0.062477335
210	0x3d8b374c	0.067976564
211	0x3d8f3a69	0.06993563
212	0xbc4b1557	-0.0123952245
213	0xbce8085f	-0.028324304
214	0x3d609a02	0.054834373
215	0x3ca1eeec	0.019767247
216	0xbc45ed4a	-0.0120805
217	0x3d962683	0.07331564
218	0xbd9c5abd	-0.076344945
219	0x3db00f08	0.08596617
220	0xbd0c203a	-0.03421042
221	0xbda1ca74	-0.07899943
222	0x3d6ba315	0.057528574
223	0x3d839ef9	0.06426806
224	0xbdafd1e1	-0.08584953
225	0xbc77d24a	-0.01512582
226	0xbda2bf94	-0.07946697
227	0xbdb05ccf	-0.08611452
228	0x3db3478c	0.08753881
229	0x3da17428	0.07883483
230	0x3d8968f8	0.06709474
231	0xbd91d467	-0.07120591
232	0x3d102b18	0.035197347
233	0xbc1611c1	-0.009159506
234	0x3c007cb1	0.007842229
235	0x3d3541fe	0.04425239
236	0xbd93f542	-0.072245136
237	0x3dad5a80	0.08464527
238	0xbc511e8b	-0.01276363
239	0x3d5bc457	0.05365404
240	0x3cc5f550	0.024164826
241	0x3cc018ad	0.023449266
242	0x3d83ec69	0.06441576
243	0xbd2a6976	-0.04160448
244	0x3cb174b6	0.021662097
245	0xbb083d65	-0.0020788547
246	0xbb2dab43	-0.0026499785
247	0xbd2cb8e4	-0.042168513
248	0x3d79e714	0.06101139
249	0x3cb8c97f	0.022557018
250	0x3d4d8fcf	0.050185975
251	0x3d55c32b	0.05218808
252	0x3da2e439	0.07953686
253	0xbd8ce159	-0.06878919
254	0x3daf3ac6	0.08556132
255	0x3d5bc8d1	0.05365831

net.2.bias f4 [64]
0	0xbc627033	-0.013820696
1	0x3acfb89f	0.0015847868
2	0x3bb50927	0.0055247727
3	0x3d823f4a	0.06359728
4	0xbccf6a26	-0.02531917
5	0xbcd65a2e	-0.026166048
6	0x3ca1ccd9	0.019751
7	0xbba9ca46	-0.0051815836
8	0xbd364c12	-0.04450614
9	0x3da3776b	0.079817615
10	0x3da3a35d	0.079901434
11	0x3ce75f6e	0.028243747
12	0xbd054f3a	-0.03254626
13	0x3d96155f	0.07328295
14	0xbc61a899	-0.013773107
15	0x3d3dd1ad	0.04634254
16	0x3d1063a6	0.035251282
17	0x3d69fa9e	0.057123773
18	0x3d695975	0.05697008
19	0x3c3a4e4e	0.011371208
20	0x3c350065	0.011047457
21	0xbca14ead	-0.019690836
22	0x3c8204da	0.015871454
23	0xbca15ec0	-0.0196985
24	0x3cebf65f	0.028804002
25	0x3d6171a0	0.055040002
26	0x3d22f18b	0.039781135
27	0x3c304af5	0.010760059
28	0x3d86f027	0.06588774
29	0x3bdf5f5b	0.006816787
30	0xbc458bcd	-0.012057257
31	0xbd091b83	-0.033473503
32	0x3d2fd3e9	0.042926703
33	0x3d232db7	0.03983852
34	0xbc88b4fa	-0.016687859
35	0x3d53deca	0.05172614
36	0x3d05d223	0.032671105
37	0xbcfa1373	-0.030526852
38	0x3d27a4f0	0.04092878
39	0xbd2c73bd	-0.042102564
40	0xbd98dd3c	-0.07464072
41	0xbb43cd54	-0.0029877024
42	0x3a811a0f	0.0009849685
43	0xbd0df135	-0.03465386
44	0x3d913000	0.070892334
45	0x3dab3ef5	0.083616175
46	0x3d512d9e	0.051068895
47	0x3db2a330	0.08722532
48	0x3d65f532	0.05614204
49	0x3c3a46ff	0.011369466
50	0x3d235250	0.03987342
51	0x3d02642d	0.031833816
52	0xbc34131a	-0.010990882
53	0xbd367a80	-0.04455042
54	0xbd5071cb	-0.05088977
55	0x3c445d2e	0.011985106
56	0x3d81eee3	0.06344392
57	0x3d80fac0	0.06297827
58	0x3d5f3240	0.05449128
59	0x3c5ff5b9	0.013669425
60	0xbd63952d	-0.055562187
61	0x3d1ab9ed	0.03777497
62	0x3c4718b4	0.012151886
63	0x3d5bd481	0.053669456

net.4.weight f4 [30, 64]
0	0x3ca20e45	0.019782195
1	0xbceb5508	-0.02872707
2	0x3ddb90c5	0.10720972
3	0x3dad7865	0.08470229
4	0x3d357942	0.044305094
5	0x3de74248	0.11291939
6	0xbd2f1929	-0.042748604
7	0xbd129a5d	-0.035791744
8	0xbdb57f08	-0.0886212
9	0xbda50872	-0.080582514
10	0xbc2c3277	-0.010510079
11	0x3df73465	0.1207054
12	0xbbc8bee0	-0.0061262697
13	0x3d6117d4	0.054954365
14	0xbda7de2d	-0.081966735
15	0x3db0c663	0.08631589
16	0xbd55c397	-0.052188482
17	0x3d282d7a	0.041058995
18	0xbd876280	-0.06610584
19	0x3d8030c3	0.062593006
20	0xbdf65211	-0.12027372
21	0x3db3d470	0.087807536
22	0xbc8c8764	-0.017154403
23	0x3d8c8ff8	0.06863397
24	0x3cf97b55	0.030454317
25	0xbd937fc6	-0.07202105
26	0xbd09333d	-0.03349613
27	0x3dc5c487	0.09656625
28	0xbcfa3a23	-0.0305453
29	0x3db4b51e	0.08823608
30	0xbd5a7157	-0.053330746
31	0xbd0b8ae8	-0.03406802
32	0x3d73510e	0.05940347
33	0x3ddeaac5	0.108724155
34	0x3d3d964e	0.04628592
35	0xbb27d977	-0.0025611797
36	0xbd5585d4	-0.05212958
37	0x3dd77ce5	0.105218686
38	0xbdbc4034	-0.09191933
39	0xbdc3ef2c	-0.09567103
40	0x3abdf00f	0.0014491099
41	0x3bbe1c2b	0.0058016977
42	0xbd9e7b16	-0.077383205
43	0x3c090fd7	0.008365593
44	0xbd06824b	-0.0328391
45	0xbcaf8085	-0.021423588
46	0x3c103459	0.008801543
47	0xbd8d09ac	-0.068866104
48	0xbd98fe50	-0.07470381
49	0xbd8cb34b	-0.06870135
50	0x3dd8f4f0	0.10593593
51	0x3ca0ba4b	0.019620081
52	0xbd5bc24b	-0.05365209
53	0xbceff578	-0.029291853
54	0x3d84ef58	0.06490964
55	0x3dc0108f	0.09378158
56	0xbdd01327	-0.10159903
57	0xbd2bfdc4	-0.041990057
58	0xbd715393	-0.058917593
59	0x3c201113	0.009769696
60	0xbc62d19d	-0.013843921
61	0x3d44ad27	0.048016693
62	0xbdda9ff3	-0.10675039
63	0x3bbc00f9	0.0057374206
64	0x3de4418b	0.11145314
65	0x3d151c41	0.0364039
66	0xbd0f64b2	-0.03500814
67	0x3c50a1e6	0.012733912
68	0x3d072a07	0.032999065
69	0x3dcd5d1e	0.10027526
70	0x3d883291	0.0665027
71	0x3dde3340	0.10849619
72	0x3dd37ceb	0.103265606
73	0x3d66a354	0.056308106
74	0xbcdda7b7	-0.027057512
75	0xbdbd7007	-0.09249883
76	0xbd06a094	-0.032867983
77	0xbcebc379	-0.028779732
78	0xbd964a20	-0.07338357
79	0xbd39f3cf	-0.04539853
80	0xbcc31db8	-0.023817882
81	0x3da12910	0.0786916
82	0xbd2a76cb	-0.041617196
83	0x3d967d84	0.07348159
84	0x3d8e31c8	0.06943089
85	0xbc9e215d	-0.019303018
86	0xbd01089c	-0.03150235
87	0xbd9d561e	-0.07682441
88	0xbdf00693	-0.11720004
89	0x3d7c03cf	0.06152707
90	0xbd561986	-0.052270435
91	0xbd9ef541	-0.07761622
92	0xbcebe6a7	-0.028796507
93	0x3d1b3527	0.037892487
94	0x3d88d17c	0.06680581
95	0x3da13da9	0.07873089
96	0xbdbc2f3b	-0.09188696
97	0xbd620558	-0.055180877
98	0x3ddb1d09	0.106988974
99	0xbd33f7b2	-0.043937393
100	0x3cb6b4ae	0.022302952
101	0xbdf9fae9	-0.122060604
102	0x3d80d41b	0.06290456
103	0x3d999168	0.07498437
104	0x3de16fdc	0.110076636
105	0xbd404f11	-0.046950404
106	0x3d91b4ad	0.07114539
107	0x3da69e20	0.08135629
108	0x3c3bc12d	0.011459631
109	0xbc4ce7e2	-0.012506457
110	0x3d1c85e1	0.038213614
111	0x3d3ec46e	0.04657405
112	0xbde9f6d3	-0.11424031
113	0x3da21ef0	0.07916057
114	0xbd46fbd2	-0.04858
115	0x3caca2be	0.021073695
116	0x3d31dc90	0.043423235
117	0xbd12d6b4	-0.035849288
118	0x3ca82763	0.020526594
119	0xbdcda832	-0.10041846
120	0xbdcd9c58	-0.10039586
121	0x3d864c49	0.06557519
122	0xbd6fdea9	-0.058561955
123	0x3da87770	0.08225906
124	0xbc0ca928	-0.008585252
125	0x3c8c84c6	0.017153155
126	0x3d85bd81	0.065302856
127	0xbc0d12e9	-0.008610466
128	0xbbc75e82	-0.0060842643
129	0xbd19c0a4	-0.037537232
130	0xbdb12892	-0.08650316
131	0xbd26a136	-0.040681086
132	0x3d153de5	0.03643598
133	0x3df1fdb5	0.11815969
134	0x3d9ae04e	0.07562314
135	0x3db827a8	0.08991939
136	0xbd9fa1d0	-0.07794535
137	0xbd13e354	-0.03610547
138	0x3d8d5376	0.069006845
139	0x3de1b3cf	0.11020624
140	0x3ce24e10	0.027625114
141	0xbdbcc95e	-0.09218095
142	0xbdee8a82	-0.11647512
143	0xbdd1a83b	-0.102371655
144	0xbd05731d	-0.032580484
145	0x3db0d5e7	0.08634549
146	0x3d46b9bb	0.04851697
147	0xbda76af4	-0.081746966
148	0xbd95eeaa	-0.07320912
149	0x3d4c78ad	0.049919773
150	0xbc80c4d3	-0.015718853
151	0xbc44c10f	-0.012008919
152	0x3de1a9d8	0.11018723
153	0xbd0a9d79	-0.033841584
154	0x3d2d79d5	0.042352516
155	0x3dc642e6	0.096807286
156	0xbdacdb3e	-0.08440255
157	0xbd94d3ec	-0.072669834
158	0x3d8ce533	0.06879654
159	0xbd501357	-0.050799694
160	0x3dbd5e1c	0.092464656
161	0xbdaaa64d	-0.083325006
162	0x3d294078	0.041321248
163	0x3d85ef7a	0.06539817
164	0x3d638910	0.055550635
165	0xbdbbb4b9	-0.091653295
166	0x3db37ce9	0.08764059
167	0x3ddf7f57	0.1091296
168	0x3d93fa00	0.07225418
169	0x3ce74b47	0.028234137
170	0x3c5bf1d3	0.013424355
171	0xbdaa8cc8	-0.08327633
172	0xbd68dd45	-0.056851644
173	0x3bd706ef	0.006562106
174	0xbdc38820	-0.09547448
175	0x3de93ac7	0.11388164
176	0xbdde3428	-0.10849792
177	0xbd032833	-0.03202076
178	0xbd0bc272	-0.034120984
179	0xbde20806	-0.110366866
180	0x3da92793	0.08259501
181	0x3da10361	0.078619726
182	0xbdc30a48	-0.09523445
183	0x3ddafada	0.106923774
184	0xbdad10a7	-0.08450442
185	0x3c0b3410	0.008496299
186	0xbd826e64	-0.063687116
187	0x3c56831d	0.013092783
188	0xbca4defc	-0.020125858
189	0x3d6a9452	0.057270356
190	0xbdb4ae46	-0.088223025
191	0xbc9385e3	-0.018008178
192	0x3dd1bd26	0.10241155
193	0xbc762601	-0.015023709
194	0xbc9f54d1	-0.019449623
195	0xbd98d7ee	-0.0746306
196	0x3d9b2512	0.0757543
197	0xbd8f226f	-0.069889896
198	0x3cdd91e6	0.027047109
199	0x3dba4db1	0.0909685
200	0xbb417f11	-0.00295252
201	0xbd221b77	-0.039576974
202	0x3d00c708	0.03143981
203	0xbdda18c8	-0.10649258
204	0x3b2f5240	0.0026751906
205	0x3da19a3f	0.07890748
206	0xbd75f4dd	-0.060047973
207	0x3d83a5fc	0.064281434
208	0x3dd999f7	0.106250696
209	0xbd0171fd	-0.03160285
210	0xbdc60208	-0.09668356
211	0x3d845f20	0.06463456
212	0xbd984824	-0.07435635
213	0xbb9c226f	-0.004764847
214	0x3dbb692a	0.09150918
215	0x3dfc0ae7	0.12306767
216	0xbd308b89	-0.04310182
217	0xbd7ee3ee	-0.06222909
218	0x3d3f79de	0.04674708
219	0x3df1b2fb	0.11801716
220	0x3db9446c	0.090462536
221	0x3d973536	0.07383196
222	0x3d99e9cb	0.075152956
223	0xbdfb9f0b	-0.122861944
224	0xbd28dcb4	-0.041226104
225	0xbdb86e5f	-0.090054266
226	0x3d89aa13	0.06721892
227	0xbd1adcb2	-0.037808128
228	0xbd77b51e	-0.06047546
229	0x3cf72bb3	0.030172205
230	0xbdcdeafb	-0.100545846
231	0x3db01ba0	0.08599019
232	0x3abcf4da	0.0014416233
233	0xbd890d73	-0.06692018
234	0xbd8dc170	-0.06921661
235	0xbd7808cd	-0.060555268
236	0xbb3957b9	-0.0028281047
237	0x3c401246	0.011723107
238	0x3d874596	0.06605069
239	0xbdbfd918	-0.09367579
240	0x3cb81fa9	0.022476034
241	0x3d6602e9	0.05615512
242	0x3dd722c7	0.1050468
243	0xbd9f8bce	-0.077903375
244	0xbd408e8b	-0.04701094
245	0x3d7ed860	0.06221807
246	0xbdd2be90	-0.10290253
247	0xbd2f38e0	-0.04277885
248	0xbcc2993c	-0.023754708
249	0x3dd2faf2	0.1030177
250	0x3d620437	0.0551798
251	0xbc3b4b64	-0.011431549
252	0xbc4d6579	-0.0125364
253	0xbdcc68ba	-0.099809125
254	0xbdbc9636	-0.09208338
255	0x3d986dcc	0.07442817

net.4.bias f4 [30]
0	0xbdb202b1	-0.086919196
1	0xbd7cdb8a	-0.061732806
2	0xbc0744a5	-0.008256112
3	0x3d1440f2	0.03619475
4	0xbc3a4c73	-0.011370766
5	0x3dd96cab	0.1061643
6	0xbbab57d5	-0.0052289763
7	0xbdfb2dec	-0.12264618
8	0x3cc94606	0.024569523
9	0xbd340530	-0.04395026
10	0xbdf87912	-0.12132467
11	0xbd9e8c02	-0.07741548
12	0xbc2389d1	-0.009981588
13	0x39cc072c	0.00038915256
14	0xbdf815ca	-0.12113531
15	0xbcc28af7	-0.023747904
16	0xbd923b74	-0.07140246
17	0xbdd6bc02	-0.104850784
18	0xba154a52	-0.00056949735
19	0xbdddd92f	-0.1083244
20	0xbd6ccca5	-0.05781235
21	0x3d73d9e5	0.059533972
22	0x3def1940	0.11674738
23	0x3dd1b99b	0.102404796
24	0xbdb4f48d	-0.08835707
25	0xbd80231c	-0.062566966
26	0x3c710c56	0.014712414
27	0xbd42fe73	-0.047605943
28	0x3d1bcdc6	0.038038038
29	0xbd759ff3	-0.059966993
