finrl/papertrading_erl/actor.pth (torch, 214017 bytes, 7 tensors)

action_std_log f4 [1, 30]
9.6721385e-05 0.00019140326 1.0404271e-05 -2.4709672e-05 0.000106525964 0.0002752547 0.00018254734 0.00019034164
0.00010012832 0.00021600322 0.00019942028 0.0003246126 0.0001193572 4.1694067e-05 0.00017883413 0.00021945368
0.0001850895 0.00018842494 0.0002775874 0.0003655389 0.00024530935 0.00017918828 8.228915e-05 0.00021254804
0.00018828324 0.00018627623 0.00031693556 4.2078158e-05 0.00030672533 0.00016062845
00000000: e6d6 ca38 6cb3 4839 018e 2e37 9e47 cfb7
00000010: b166 df38 0f50 9039 2e6a 3f39 7296 4739
00000020: fcfb d138 ec7e 6239 791b 5139 c430 aa39
00000030: 694f fa38 aae0 2e38 6c85 3b39 261d 6639
00000040: 9614 4239 ef93 4539 2689 9139 cda5 bf39
00000050: dd9c 8039 7de4 3b39 a792 ac38 6edf 5e39
00000060: e66d 4539 2553 4339 5f2a a639 147d 3038
00000070: facf a039 5f6e 2839

net.0.weight f4 [128, 333]
0.05126384 -0.025607057 0.015082099 0.05398705 0.009292985 0.040794298 -0.0506916 -0.012966721
-0.010498782 -0.003287021 0.020051967 0.028180152 0.015822476 -0.008101348 0.017013093 0.052681852
0.007841408 -0.05433253 0.03554956 0.03313464 -0.012849201 0.044583976 0.008653531 0.016098715
0.04086044 0.023425335 0.038811173 -0.00077248894 0.01696125 -0.017294727 -0.039363597 0.012969831
0.026121007 -0.02650185 -0.046309758 0.019110873 -0.022121107 0.044377264 -0.007706947 -0.004041597
0.0027704078 -0.027476152 0.026334776 0.046962682 0.00061577803 0.030721942 -0.04639085 -0.0037642133
-0.0055096117 0.020662116 0.029781522 -0.024720537 0.022042159 0.018796857 0.03981126 0.017344901
0.03012208 0.0009940792 0.04238805 0.03354584 0.031012593 -0.03616554 0.035379674 0.00731653
0.019620642 -0.04743933 0.035933804 -0.04248609 -0.026058998 -0.04807047 0.026582943 0.03716071
0.023644418 -0.0345433 -0.04023351 0.010377586 -0.010843213 -0.011506567 -0.01428179 -0.0535689
0.04847445 0.011077197 0.010355184 0.0050005745 -0.039078675 -0.028164247 0.023748785 0.04253412
-0.05325851 0.036261044 -0.013029576 0.049507685 -0.053113744 -0.04199203 -0.031013777 -0.011096751
-0.039028257 0.013528615 0.0046292003 -0.045704454 -0.0116466675 -0.022644188 0.011572333 -0.012836678
0.020532172 -0.01991607 -0.013284494 0.037338633 -0.038536 0.0006950015 0.050697193 0.0003176677
-0.0077241855 0.038851168 0.023000462 -0.031315837 -0.015665114 -0.010857222 0.042071167 -0.049454402
0.015431046 -0.023086287 -0.049252894 -0.047250167 -0.04910392 0.032174923 0.028791059 -0.0094640935
0.02166386 -0.0030580596 0.04047164 -0.0013782122 -0.0067511536 0.046842903 -0.022605874 -0.03349236
0.002905719 0.022455966 -0.03265399 0.012388512 -0.03824618 0.0039592036 0.04457186 0.046325073
0.03852913 -0.022814164 0.020011885 0.011348429 0.042279128 0.04087325 -0.02373308 0.009308485
-0.046418987 -0.03543049 0.019947993 -0.005995314 -0.032072876 -0.031468723 0.017419295 0.042592227
0.050069977 -0.03442264 0.034235746 -0.031325977 0.02861263 0.011630527 -0.013819878 0.0048753074
-0.0058058333 0.042238377 -0.048921227 -0.0016154329 -0.048674967 0.0065541356 0.038002573 -0.05189329
-0.04650524 -0.015727445 -0.020636102 0.015164118 0.03025368 0.050446454 0.050258502 -0.042098194
-0.04102184 0.017094074 -0.023439838 -0.0023254754 0.025560688 0.010071947 -0.021706356 -0.041738477
0.0326826 -0.042200293 0.02153064 -0.043470215 0.026111595 -0.04029271 -0.048284285 0.04744884
0.01537702 -0.05257238 0.0382028 0.017890565 -0.0049331924 0.016931979 0.036085878 -0.02592404
-0.0120140305 0.0029824656 -0.05174584 -0.030920932 0.0009685514 0.044688467 0.020210125 0.00041131704
-0.03622998 0.05246347 0.023036862 -0.024443049 -0.003935609 0.04590183 0.02745271 0.006829844
0.026256848 0.014453597 0.0374122 0.041015413 0.021281073 0.030030822 -0.03251717 -0.009037625
-0.050057586 0.035650827 0.051995438 0.052646585 0.011764323 -0.042986948 0.045245416 0.04325899
-0.017640365 0.052684754 0.0126642035 0.046035677 0.023889143 -0.041823976 -0.046901476 0.0031391073
-0.03661275 -0.0028144398 0.0034424784 0.043907758 -0.0322074 0.053599052 0.0125196595 -0.030880017
00000000: 08fa 513d e4c5 d1bc e81a 773c 8621 5d3d
00000010: 9b41 183c ec17 273d ffa1 4fbd 5f72 54bc
00000020: 1503 2cbc 106b 57bb 0644 a43c 10da e63c
00000030: 239e 813c 84bb 04bc 0b5f 8b3c edc8 573d
00000040: 4079 003c c98b 5ebd 6a9c 113d 30b8 073d
00000050: 7585 52bc b09d 363d 8ac7 0d3c 74e1 833c
00000060: 475d 273d 7de6 bf3c 77f8 1e3d db80 4aba
00000070: 52f2 8a3c acad 8dbc b93b 21bd 6a7f 543c
00000080: b9fb d53c 681a d9bc 4daf 3dbd 688e 9c3c
00000090: 5337 b5bc efc4 353d 8f8a fcbb 5f6f 84bb
000000a0: bb8f 353b ab15 e1bc 07bc d73c f15b 403d
000000b0: 2a6c 213a 95ac fb3c 5504 3ebd 05b1 76bb
000000c0: f989 b4bb 9943 a93c 61f8 f33c b982 cabc
000000d0: c291 b43c defb 993c 2211 233d e516 8e3c
000000e0: 95c2 f63c c34b 823a 189f 2d3d 5d67 093d
000000f0: 1f0e fe3c 5122 14bd 47ea 103d 81bf ef3b
00000100: 78bb a03c be4f 42bd 532f 133d e505 2ebd
00000110: ae79 d5bc 8be5 44bd 79c4 d93c d435 183d
00000120: f0b1 c13c 467d 0dbd e5cb 24bd c006 2a3c
00000130: bba7 31bc 0a86 3cbc 2bfe 69bc 106b 5bbd
00000140: 258d 463d 227d 353c caa8 293c dcdb a33b
00000150: f610 20bd b5b8 e6bc d08c c23c 4238 2e3d
00000160: 9825 5abd 7686 143d 017a 55bc 92c8 4a3d
00000170: cc8d 59bd d6ff 2bbd 9b10 febc 26cf 35bc
00000180: 18dc 1fbd 20a7 5d3c 8cb0 973b 9834 3bbd
00000190: aad1 3ebc 4e80 b9bc e299 3d3c ee50 52bc
000001a0: 1633 a83c 0727 a3bc 35a7 59bc 65f0 183d
000001b0: edd7 1dbd c330 363a dca7 4f3d a38c a639
000001c0: 2a1b fdbb 6722 1f3d 776b bc3c 0945 00bd
000001d0: 2054 80bc 7de2 31bc d152 2c3d b390 4abd
000001e0: 7fd2 7c3c 741f bdbc 67bd 49bd 6489 41bd
000001f0: 3121 49bd dac9 033d 3adb eb3c 490f 1bbc
00000200: 6878 b13c ba69 48bb 97c5 253d 21a5 b4ba
00000210: c838 ddbb 58de 3f3d f42f b9bc 492f 09bd
00000220: e06d 3e3b 93f5 b73c 31c0 05bd 2ff9 4a3c
00000230: 07a8 1cbd 35bc 813b fc90 363d 5cbf 3d3d
00000240: b9d0 1d3d c5e4 babc f7ef a33c c3ee 393c
00000250: e12c 2d3d b66a 273d e06b c2bc 9e82 183c
00000260: d621 3ebd 901f 11bd f969 a33c 5774 c4bb
00000270: d95e 03bd 59e5 00bd e9b2 8e3c 3075 2e3d
00000280: 2d16 4d3d c1fe 0cbd c83a 0c3d ab4f 00bd
00000290: 0965 ea3c f78d 3e3c c56c 62bc 0bc1 9f3b
000002a0: dc3e bebb 2602 2d3d a061 48bd efbc d3ba
000002b0: 675f 47bd 13c4 d63b 96a8 1b3d 0f8e 54bd
000002c0: 477c 3ebd d8d6 80bc 0b0d a9bc ec72 783c
000002d0: 91d6 f73c f1a0 4e3d dcdb 4d3d 286f 2cbd
000002e0: 8406 28bd df08 8c3c e704 c0bc 0167 18bb
000002f0: a664 d13c cf04 253c 87d1 b1bc f7f5 2abd
00000300: 31de 053d 37da 2cbd 0661 b03c d30d 32bd
00000310: fce7 d53c f809 25bd bec5 45bd b759 423d
00000320: e6ef 7b3c 2356 57bd 8a7a 1c3d 3c8f 923c
00000330: 9ea6 a1bb efb4 8a3c c9ce 133d a75e d4bc
00000340: 7fd6 44bc 7875 433b 72f3 53bd e54d fdbc
00000350: 62e6 7d3a 410b 373d b48f a53c 0aa6 d739
00000360: e365 14bd efe3 563d cdb7 bc3c ca3c c8bc
00000370: 48f6 80bb 8f03 3c3d 81e4 e03c e2cc df3b
00000380: 9a18 d73c c8ce 6c3c 893d 193d c7ff 273d
00000390: a555 ae3c 3303 f63c b930 05bd 8c12 14bc
000003a0: 2f09 4dbd 9a06 123d 2bf9 543d f2a3 573d
000003b0: 26bf 403c 1513 30bd 4253 393d 5730 313d
000003c0: 8782 90bc f8cb 573d 857d 4f3c e88f 3c3d
000003d0: 2ab3 c33c 9e4f 2bbd c31b 40bd 7bb9 4d3b
000003e0: 40f7 15bd 7772 38bb 349b 613b 9fd8 333d
000003f0: e8eb 03bd ae8a 5b3d 421f 4d3c 17f8 fcbc

net.0.bias f4 [128]
0.04172292 0.020191109 0.022860957 0.038344927 0.013728501 0.012068471 0.030912772 -0.007925439
0.045122705 0.028984996 0.0051673814 -0.027805481 0.010236114 -0.009673638 -0.050175685 -0.0425091
0.04572156 -0.039768767 0.033076037 -0.021151887 0.04015691 -0.03168896 -0.030891739 -0.009989361
-0.034507494 -0.019558536 -0.029054184 -0.017686736 -0.023569304 -0.0056290263 -0.042306945 -0.040729277
-0.050411087 -0.047609992 0.040121756 0.009909677 -0.0036191607 -0.04913084 -0.0019322681 0.044161838
0.0052534533 -0.040811162 0.025545925 0.043917652 -0.013759181 0.021010986 0.05293958 0.016969787
-0.025828995 0.046428442 0.0527412 0.0068311947 -0.009425787 0.042092685 -0.04336913 -0.0041206195
-0.03375998 0.03455071 -0.04267507 0.03623444 0.003624052 0.004433967 0.012786736 0.0055365874
-0.0046557486 0.016449856 -0.007624288 -0.040566776 0.024611207 0.040624175 -0.040677242 -0.043700095
-0.0033006894 -0.01387133 -0.03356899 -0.02264136 0.002728704 0.01606902 -0.03099943 -0.012186118
0.010308148 -0.0014271033 0.04592918 -0.04755326 -0.003114802 0.0073282346 -0.010953966 -0.0005833022
-0.012980692 -0.001102704 -0.02431971 0.016214576 0.049789447 -0.020596994 0.03987369 -0.023746308
-0.04818198 -0.015218277 -0.014480424 -0.017018953 -0.04345782 -0.012002819 0.049119845 -0.048691366
0.023754792 0.041863855 0.032651648 -0.00016529253 -0.0073563233 -0.029366191 -0.03872066 -0.0548026
-0.02069258 -0.042055607 -0.030881405 -0.013742514 0.020327186 -0.05216963 -0.053688936 0.01238877
-0.048047375 0.031387165 -0.028725836 0.025481768 0.0041500484 -0.024807462 -0.0025875298 -0.0013629076
00000000: a7e5 2a3d d367 a53c e746 bb3c 920f 1d3d
00000010: 82ed 603c d6ba 453c c83c fd3c b3d9 01bc
00000020: 96d2 383d f171 ed3c 2353 a93b 52c8 e3bc
00000030: 60b5 273c 2e7e 1ebc 0585 4dbd 061e 2ebd
00000040: 8846 3b3d 93e4 22bd bd7a 073d b946 adbc
00000050: 927b 243d 48cc 01bd ac10 fdbc 6baa 23bc
00000060: bb57 0dbd 3939 a0bc 0a03 eebc c6e3 90bc
00000070: 6a14 c1bc b273 b8bb 0c4a 2dbd bed3 26bd
00000080: db7b 4ebd b202 43bd b656 243d 335c 223c
00000090: 712f 6dbb 6b3d 49bd 2944 fdba 0be3 343d
000000a0: 2925 ac3b 9b29 27bd b045 d13c ffe2 333d
000000b0: 306e 61bc 3b1f ac3c 2cd7 583d 3904 8b3c
000000c0: 5497 d3bc c02b 3e3d 2807 583d 37d8 df3b
000000d0: 9e6e 1abc 6169 2c3d d4a3 31bd 4306 87bb
000000e0: e847 0abd 0c85 0d3d 0ecc 2ebd 906a 143d
000000f0: 8181 6d3b d04a 913b 757f 513c 436c b53b
00000100: 408f 98bb d9c1 863c 2ad5 f9bb 5929 26bd
00000110: 719d c93c 8965 263d 2e9d 26bd dffe 32bd
00000120: 6150 58bb 9344 63bc a37f 09bd 607a b9bc
00000130: 0ed4 323b 2da3 833c 84f2 fdbc 49a8 47bc
00000140: 82e3 283c a40d bbba 3c20 3c3d 35c7 42bd
00000150: b521 4cbb b021 f03b 4378 33bc bfe8 18ba
00000160: f8ac 54bc 9b88 90ba 213a c7bc 6ed4 843c
00000170: 05f0 4b3d 07bb a8bc 9852 233d 9e87 c2bc
00000180: 785a 45bd 1556 79bc 4d3f 6dbc 556b 8bbc
00000190: d400 32bd 79a7 44bc e431 493d 9970 47bd
000001a0: 6999 c23c 6f79 2b3d bcbd 053d 6052 2db9
000001b0: 500d f1bb 5e91 f0bc 8e99 1ebd b178 60bd
000001c0: 7c83 a9bc 8042 2cbd 00fb fcbc 4828 61bc
000001d0: 3385 a63c d2af 55bd eee8 5bbd 44fa 4a3c
000001e0: 53cd 44bd d48f 003d 7252 ebbc 24bf d03c
000001f0: 21fd 873b 0539 cbbc 8c93 29bb 97a3 b2ba

net.2.weight f4 [64, 128]
-0.028929198 -0.033946905 0.019337498 0.08537464 -0.04159651 0.02604482 -0.047964506 0.07372631
0.012128483 -0.026345408 -0.00172351 0.08364044 -0.004835214 -0.050190732 -0.02913846 -0.0060659433
-0.08520563 -0.021110144 0.026591096 0.054156143 0.005439752 0.07665196 -0.0438747 -0.006311146
-0.016098361 0.07518593 0.06601503 0.041539297 0.06527607 0.008985729 -0.08190109 -0.026732378
0.055442218 0.006081876 -0.043829866 0.024057154 -0.06890444 -0.0022983465 -0.084939145 -0.02836918
-0.039496586 0.021952108 0.05751661 -0.045297828 -0.028534645 -0.06279971 -0.012786846 0.064941555
-0.07021358 -0.031855457 -0.019250967 0.038226325 -0.032638717 0.030095674 0.040025998 -0.06909781
0.024742592 -0.02741267 0.038618486 0.0026611635 -0.02649894 0.064747624 0.070270985 -0.010336483
-0.04585008 0.08540956 -0.05911971 -0.07467794 -0.008851379 0.06964433 0.042195298 -0.046601035
0.08259799 0.040805295 0.08629242 -0.068580955 0.08144255 0.041428007 -0.07259291 0.0002296316
-0.009320484 0.049857557 -0.079667315 0.06104991 0.07523969 0.072815426 0.044195592 0.06479919
0.04974621 -0.07542795 -0.067459844 -0.0053268555 0.06400943 -0.0065183416 0.036220163 0.031134207
0.027496563 -0.0392972 -0.05773195 0.033788387 0.082697555 -0.056335513 0.04887735 0.08358603
-0.0020362092 0.018767793 0.034742396 0.034662433 0.033308376 -0.045278117 -0.05456593 0.041989736
0.012443025 0.058335155 0.016961534 0.043495856 -0.08051257 -0.014346045 -0.00012402372 0.08192418
0.047597695 -0.018756663 -0.028474381 -0.067446955 -0.043839198 -0.08411588 -0.04154784 0.058064047
0.042979617 0.058892813 -0.023664467 0.022522766 -0.051798195 0.08469044 0.07649642 0.01174903
0.07160408 -0.08237733 0.03244361 0.023626063 0.058715153 0.04211663 0.087261304 -0.000602775
0.07927195 -0.036555342 0.077427246 0.037975132 0.08164382 0.030476213 -0.0725066 0.07723338
-0.049729474 -0.012787784 -0.073270544 -0.04534006 0.04761351 0.016506795 -0.045041997 0.065474145
0.07962903 0.033367023 0.087960005 0.059464972 0.037801348 -0.07820216 -0.0010651511 -0.07816264
-0.07038962 0.049673554 0.08047339 0.03225403 -0.06705594 0.018373571 -0.08788827 -0.080939144
-0.017195271 -0.021011032 -0.020315608 0.066744566 -0.071736746 0.037345774 0.07254163 0.030658117
-0.08463137 -0.063230954 0.08765409 0.060879625 0.0559416 -0.03675964 0.014591267 0.057445396
0.03662291 -0.009409784 0.024209214 0.03363976 0.053207386 0.06841018 -0.044741962 -0.02244456
-0.032675233 0.061123952 -0.02499379 0.01287823 -0.0059728236 0.015931308 0.047560934 0.067841776
-0.024324546 -0.028133443 0.08646109 -0.08712347 -0.04682956 -0.08797821 -0.0136354 0.003537161
0.02575513 -0.0190947 -0.02877249 0.040149566 0.054514565 0.00653286 -0.0041185515 -0.0722027
-0.060532678 -0.077517204 -0.035696607 -0.07805617 0.0391405 -0.03125298 -0.07287023 -0.0591354
-0.028068004 -0.087827906 0.081947826 -0.046698928 0.062056825 0.0712845 -0.08104316 -0.05342372
-0.066165216 0.015131381 -0.014498665 0.007949769 -0.048322823 0.05524511 -0.035515476 -0.07594723
0.023848932 0.04920538 0.061889905 0.064291425 0.036085375 -0.011617761 0.08320081 -0.076930344
00000000: edfc ecbc e90b 0bbd ac69 9e3c e6d8 ae3d
00000010: 1a61 2abd f25b d53c 6e76 44bd d2fd 963d
00000020: 8bb6 463c 53d2 d7bc 66e7 e1ba ae4b ab3d
00000030: b770 9ebb cc94 4dbd c8b3 eebc d2c4 c6bb
00000040: 4a80 aebd 2eef acbc 92d5 d93c d5d2 5d3d
00000050: f23f b23b b4fb 9c3d f5b5 33bd bbcd cebb
00000060: b6e0 83bc 15fb 993d e332 873d 1c25 2a3d
00000070: 76af 853d e138 133c c2bb a7bd dcfd dabc
00000080: 6117 633d 794a c73b f286 33bd 8213 c53c
00000090: c51d 8dbd db9f 16bb 93f4 adbd 7c66 e8bc
000000a0: 2cc7 21bd e8d4 b33c 8996 6b3d 378a 39bd
000000b0: 7dc1 e9bc 229d 80bd eb7f 51bc 1400 853d
000000c0: 23cc 8fbd de7a 02bd 34b4 9dbc 3593 1c3d
000000d0: 2db0 05bd 348b f63c 4df2 233d 2783 8dbd
000000e0: fab0 ca3c 8990 e0bc 6b2e 1e3d ea66 2e3b
000000f0: 4e14 d9bc 679a 843d 3cea 8f3d 5a5a 29bc
00000100: 4bcd 3bbd 35eb ae3d 8227 72bd bff0 98bd
00000110: 6005 11bc b0a1 8e3d fad4 2c3d bae0 3ebd
00000120: 2329 a93d 7423 273d 15ba b03d 2c74 8cbd
00000130: 5acb a63d 6ab0 293d 97ab 94bd 43c9 7039
00000140: f1b4 18bc 7037 4c3d 9e28 a3bd 780f 7a3d
00000150: 4417 9a3d 4120 953d 7006 353d 70b5 843d
00000160: afc2 4b3d f879 9abd 6328 8abd e78c aebb
00000170: 6017 833d d097 d5bb 985b 143d 2a0d ff3c
00000180: 7940 e13c 1af6 20bd 5678 6cbd b165 0a3d
00000190: 565d a93d 11c0 66bd 9e33 483d 272f ab3d
000001a0: ec71 05bb eabe 993c 0b4e 0e3d 32fa 0d3d
000001b0: 5d6e 083d 8c75 39bd 8680 5fbd 6efd 2b3d
000001c0: d4dd 4b3c d8f0 6e3d eaf2 8a3c b628 323d
000001d0: c6e3 a4bd ad0b 6bbc 5d0c 02b9 ddc7 a73d
000001e0: cdf5 423d 93a7 99bc 1b43 e9bc a121 8abd
000001f0: bb90 33bd f244 acbd 112e 2abd 91d4 6d3d
00000200: 650b 303d 9739 713d fcdb c1bc aa81 b83c
00000210: 582a 54bd 2e72 ad3d 28aa 9c3d 017f 403c
00000220: 29a5 923d 72b5 a8bd 97e3 043d 728b c13c
00000230: 4d7f 703d 7d82 2c3d 0eb6 b23d 8c03 1eba
00000240: 5559 a23d 0ebb 15bd 2d92 9e3d d08b 1b3d
00000250: e034 a73d 40a9 f93c 577e 94bd 892c 9e3d
00000260: 22b1 4bbd db83 51bc de0e 96bd 80b6 39bd
00000270: 6206 433d 4239 873c f57d 38bd 4f17 863d
00000280: 8b14 a33d dcab 083d 6024 b43d 8b91 733d
00000290: 96d5 1a3d 7428 a0bd 8a9c 8bba bc13 a0bd
000002a0: 6f28 90bd 7f76 4b3d 3ccf a43d cd1c 043d
000002b0: a054 89bd 2c84 963c c4fe b3bd 6cc3 a5bd
000002c0: 19dd 8cbc 541f acbc eb6c a6bc 60b1 883d
000002d0: b7ea 92bd e2f7 183d b590 943d bb26 fb3c
000002e0: 3653 adbd 3b7f 81bd fd83 b33d ea5c 793d
000002f0: 0523 653d 4791 16bd 3610 6f3c dd4b 6b3d
00000300: e801 163d 7f2b 1abc 6752 c63c d8c9 093d
00000310: fdef 593d a31a 8c3d 5943 37bd a7dd b7bc
00000320: 77d6 05bd 1c5d 7a3d c7bf ccbc 36ff 523c
00000330: adb7 c3bb 6082 823c 41cf 423d a1f0 8a3d
00000340: 4544 c7bc 1b78 e6bc 8312 b13d ca6d b2bd
00000350: 5ad0 3fbd eb2d b4bd 0367 5fbc b7cf 673b
00000360: 6cfc d23c 7d6c 9cbc 49b4 ebbc df73 243d
00000370: aa4a 5f3d 9a11 d63b eaf4 86bb 02df 93bd
00000380: 1df1 77bd 57c1 9ebd 9b36 12bd eadb 9fbd
00000390: ca51 203d 2003 00bd fd3c 95bd f637 72bd
000003a0: dfee e5bc 1edf b3bd 43d4 a73d 6047 3fbd
000003b0: 4c2f 7e3d 9cfd 913d f5f9 a5bd d5d2 5abd
000003c0: a181 87bd 9de9 773c cf8b 6dbc bf3f 023c
000003d0: 27ee 45bd b248 623d ad78 11bd 398a 9bbd
000003e0: d65e c33c 958b 493d 4580 7d3d 39ab 833d
000003f0: 42ce 133d 6c58 3ebc 3065 aa3d a88d 9dbd

net.2.bias f4 [64]
-0.04961168 0.02152947 0.045416538 -0.050412163 -0.026463214 -0.003160823 0.06849159 -0.026177045
0.027732523 0.019415807 0.06341926 0.05309539 -0.061961234 -0.0062029706 -0.07529331 0.081614636
-0.012002371 0.05855306 0.012439106 0.03366194 0.027551332 0.060815144 -0.06499944 0.006840262
0.045501865 -0.015546073 -0.038649738 0.037933346 0.040181786 -0.06202016 -0.043834638 0.0565351
0.059221376 0.000103503466 -0.023980841 -0.032200128 0.0016550373 -0.014506413 0.04382639 0.020544799
0.073166616 0.066796064 0.056208383 0.023024168 -0.04712463 0.07084912 0.08142949 0.07175459
-0.0160275 0.010369628 0.07124562 0.0816261 0.07458164 0.016192876 0.0018055364 -0.07033631
0.0007689393 0.005878999 0.013805751 -0.028671162 0.04209236 0.0073573124 -0.0685065 -0.04515797
00000000: 9e35 4bbd 925e b03c b106 3a3d fc7c 4ebd
00000010: 62c9 d8bc cf25 4fbb 5245 8c3d 3e71 d6bc
00000020: 512f e33c e60d 9f3c f5e1 813d 8d7a 593d
00000030: 10cb 7dbd 4a42 cbbb 6133 9abd 9325 a73d
00000040: 98a5 44bc 55d5 6f3d 64cd 4b3c 1ae1 093d
00000050: 55b3 e13c 4d19 793d 6d1e 85bd 4724 e03b
00000060: 2a60 3a3d f5b4 7ebc 304f 1ebd ff5f 1b3d
00000070: a895 243d da08 7ebd f38b 33bd 5991 673d
00000080: 1d92 723d 0010 d938 7873 c4bc 48e4 03bd
00000090: d6ed d83a 4eac 6dbc 4d83 333d 914d a83c
000000a0: 61d8 953d 60cc 883d c33a 663d 2e9d bc3c
000000b0: c205 41bd 5819 913d 81c4 a63d 12f4 923d
000000c0: 1b4c 83bc 5fe5 293c 39e9 913d 962b a73d
000000d0: 42be 983d eca6 843c c0a7 ec3a 7c0c 90bd
000000e0: a592 493a 9ea4 c03b 8431 623c c9df eabc
000000f0: 0a69 2c3d 9c15 f13b 234d 8cbd 90f7 38bd

net.4.weight f4 [30, 64]
-0.06559724 0.024098745 -0.02867523 -0.009866955 0.10172107 0.0039150026 0.07554345 -0.075287916
-0.0017045807 -0.05317876 -0.10828359 -0.07650064 0.036435105 -0.015551025 0.12332572 -0.057083827
0.12436033 -0.018522132 -0.0116332 0.06023446 0.048728902 -0.117615536 -0.07310387 -0.058364872
-8.410133e-05 -0.0031114975 -0.008087713 -0.07539531 0.038032107 -0.08418018 0.11064439 0.020400222
-0.051926445 -0.01793027 0.011404176 0.021784935 -0.08284478 0.09983492 -0.054511096 0.11302638
-0.12166362 0.02037591 -0.07196366 -0.11824333 -0.042300534 0.12351741 0.033756237 0.08531877
0.059665214 0.059233278 -0.07870833 -0.059409734 -0.065450676 -0.096679404 0.055583756 0.033242982
-0.0256353 0.08727016 0.03386013 0.059525147 0.051179934 0.014597164 0.12277186 0.10804229
0.020025734 0.0604077 -0.017857894 0.03606758 -0.114499524 -0.0203815 0.038847085 -0.04893034
0.109564535 0.11488652 0.047923226 0.004281027 0.04585003 -0.029143693 0.06178809 -0.11277705
0.097142495 -0.07342934 0.08122982 0.11833998 -0.047544602 0.0021737667 0.084950514 -0.005016694
-0.117062174 0.03866658 -0.011782316 -0.040455975 0.046937488 -0.07610971 -0.024081636 -0.036311533
-0.07523748 0.03311257 -0.02508174 0.067713335 0.03234225 0.088303775 -0.008897094 -0.0072582546
-0.011396297 -0.06829658 -0.013690191 0.060837384 -0.10362769 0.09996749 -0.12089417 -0.006801757
0.008481276 -0.08145615 -0.08881307 -0.05035236 -0.111862995 0.10280572 -0.05235158 -0.09720576
0.0383096 0.09364344 0.11433421 0.067607865 -0.118596844 0.07893157 -0.03932566 -0.04298951
0.09188458 0.09131225 0.12141674 0.113938324 -0.0462695 -0.0061270893 -0.015607303 0.0606731
0.010888897 0.058168605 -0.03159399 -0.12136096 -0.051314816 -0.020284167 -0.1063276 -0.10369104
-0.055047493 0.052556887 -0.035951853 0.082626395 -0.006644853 -0.03280538 -0.11819518 0.11544571
-0.00054134784 0.07924036 0.00016799942 -0.044763815 -0.019350061 -0.08722263 0.11573747 0.023322484
-0.06910124 -0.115645826 0.09309003 0.019115655 -0.014874518 0.11634281 0.09827245 -0.10738641
-0.03706384 -0.010279616 0.10575506 0.039162908 0.10165877 -0.10032875 -0.10353004 0.10582884
-0.034735546 0.09516239 -0.105890535 -0.0032470399 -0.11134349 0.06495309 -0.031368688 0.015357639
0.028690074 0.106792234 -0.052887645 -0.108117394 0.089543626 0.002008691 -0.027181169 0.048736747
0.009366694 0.061315753 0.014583249 0.09165406 -0.015715271 -0.02328247 -0.048033014 0.021664517
-0.009016664 0.014050949 -0.036798924 0.0287027 -0.037466537 0.10749932 0.028870765 -0.06744818
0.09850399 -0.05506337 -0.10299099 0.03305231 -0.08143883 0.07396663 -0.113274746 0.09453443
-0.09423799 -0.037966914 0.034147672 -0.042611923 -0.021079335 0.022020929 -0.0733209 -0.093796685
-0.09588805 0.11282554 -0.032544613 -0.035923418 0.046278406 -0.091354415 0.0376332 -0.08319044
-0.06643148 -0.036291048 -0.04059795 0.06737783 0.09341458 0.05372258 -0.023975536 -0.10904109
-0.009830444 0.015938038 -0.037461124 0.10539346 0.115304574 -0.07999413 -0.11391924 0.07740468
-0.10279022 -0.12027739 0.08535876 -0.039751366 -0.015183721 -0.09135012 -0.025112053 0.1148367
00000000: d957 86bd bb6a c53c 51e8 eabc 02a9 21bc
00000010: 2353 d03d 6c49 803b 86b6 9a3d 8d30 9abd
00000020: 3d6c dfba f9d1 59bd c9c3 ddbd 5eac 9cbd
00000030: fa3c 153d bac9 7ebc 3292 fc3d bbd0 69bd
00000040: a1b0 fe3d babb 97bc 2d99 3ebc 69b8 763d
00000050: f597 473d 6ae0 f0bd 7bb7 95bd 0110 6fbd
00000060: 8f5f b0b8 44ea 4bbb 5482 04bc db68 9abd
00000070: 8ec7 1b3d a966 acbd 8799 e23d 5e1e a73c
00000080: d3b0 54bd 80e2 92bc 95d8 3a3c 5276 b23c
00000090: 86aa a9bd 4076 cc3d 0747 5fbd 607a e73d
000000a0: c72a f9bd 61eb a63c af61 93bd 8f29 f2bd
000000b0: 5343 2dbd b2f6 fc3d fb43 0a3d 9bbb ae3d
000000c0: 8363 743d 989e 723d d531 a1bd 9f57 73bd
000000d0: 010b 86bd daff c5bd cbab 633d cb29 083d
000000e0: 1f01 d2bc b3ba b23d ebb0 0a3d a4d0 733d
000000f0: 0da2 513d f128 6f3c d06f fb3d 4745 dd3d
00000100: 020d a43c 106e 773d b84a 92bc 99bb 133d
00000110: ba7e eabd 1af7 a6bc 1f1e 1f3d 2e6b 48bd
00000120: 5f63 e03d a049 eb3d 254b 443d db47 8c3b
00000130: 3ecd 3b3d c1be eebc 8215 7d3d a7f7 e6bd
00000140: a5f2 c63d 1f62 96bd d25b a63d 3b5c f23d
00000150: 21be 42bd c175 0e3b 89fa ad3d 1463 a4bb
00000160: 4bbe efbd d960 1e3d 9d0a 41bc 2ab5 25bd
00000170: 8641 403d 68df 9bbd da46 c5bc 67bb 14bd
00000180: 1c16 9abd 0ca1 073d 3978 cdbc 4aad 8a3d
00000190: 4f79 043d 9cd8 b43d 1ec5 11bc a7d6 edbb
000001a0: 89b7 3abc 14df 8bbd d34c 60bc 9f30 793d
000001b0: c13a d4bd c1bb cc3d 5d97 f7bd 46e1 debb
000001c0: 0df5 0a3c 7bd2 a6bd a0e3 b5bd 473e 4ebd
000001d0: 6d18 e5bd ce8b d23d 9c6e 56bd d013 c7bd
000001e0: 87ea 1c3d 22c8 bf3d 0e28 ea3d fe75 8a3d
000001f0: e7e2 f2bd e0a6 a13d f113 21bd c515 30bd
00000200: fc2d bc3d eb01 bb3d 57a9 f83d 7f58 e93d
00000210: 1685 3dbd c0c5 c8bb c6b5 7fbc 5b84 783d
00000220: 5867 323c 3442 6e3d b368 01bd 188c f8bd
00000230: 7c2f 52bd fb2a a6bc 49c2 d9bd f85b d4bd
00000240: 7b79 61bd e445 573d 4042 13bd 0738 a93d
00000250: 11bd d9bb ef5e 06bd 5110 f2bd cd6e ec3d
00000260: 3de9 0dba c548 a23d 0029 3039 435a 37bd
00000270: 0584 9ebc c7a1 b2bd c407 ed3d cb0e bf3c
00000280: f384 8dbd b8d7 ecbd fca5 be3d 6f98 9c3c
00000290: 40b4 73bc 2445 ee3d 1143 c93d 68ed dbbd
000002a0: 41d0 17bd d66b 28bc 1c96 d83d 4969 203d
000002b0: 7932 d03d 2979 cdbd 8f07 d4bd cabc d83d
000002c0: dc46 0ebd 80e4 c23d 23dd d8bd 4acc 54bb
000002d0: 0e08 e4bd 2006 853d 747c 00bd 9b9e 7b3c
000002e0: 7207 eb3c e3b5 da3d b7a0 58bd a76c ddbd
000002f0: a662 b73d 3ea4 033b 0bab debc 2fa0 473d
00000300: c376 193c 3a26 7b3d 94ee 6e3c 20b5 bb3d
00000310: 50bd 80bc e1ba bebc 44be 44bd c979 b13c
00000320: a1ba 13bc f435 663c 78ba 16bd ed21 eb3c
00000330: 8376 19bd 9a28 dc3d 6282 ec3c 4522 8abd
00000340: 76bc c93d 218a 61bd f1ec d2bd dc61 073d
00000350: 67c9 a6bd d17b 973d 97fc e7bd 449b c13d
00000360: d9ff c0bd 3283 1bbd 6ede 0b3d d789 2ebd
00000370: 92ae acbc 3c65 b43c 4529 96bd 7a18 c0bd
00000380: f460 c4bd 1411 e73d 804d 05bd 6f24 13bd
00000390: 6d8e 3d3d 0618 bbbd 4525 1a3d c05f aabd
000003a0: 3a0d 88bd eca5 14bd 094a 26bd 63fd 893d
000003b0: 2550 bf3d 350c 5c3d 5868 c4bc ef50 dfbd
000003c0: df0f 21bc 7d90 823c d670 19bd 87d8 d73d
000003d0: ce24 ec3d f6d3 a3bd 7e4e e9bd 5886 9e3d
000003e0: ae83 d2bd fe53 f6bd 93d0 ae3d 54d2 22bd
000003f0: 24c5 78bc c615 bbbd cbb7 cdbc 812f eb3d

net.4.bias f4 [30]
-0.025308903 -0.11354795 0.010197835 0.01252586 0.034155183 0.11157154 0.08182229 0.120696925
-0.09729856 0.043443155 -0.06652785 0.086001 -0.05127056 -0.06836743 0.106363855 0.033607565
0.03733207 0.0521261 -0.057063334 -0.00838316 0.11451981 0.053241666 0.020620668 -0.07525877
0.0045381957 0.049558453 0.008777507 0.013546786 0.09100443 0.10288369
00000000: 9e54 cfbc d48b e8bd d214 273c 4439 4d3c
00000010: 4ee6 0b3d 9f7f e43d 7292 a73d f32f f73d
00000020: 7844 c7bd 73f1 313d c13f 88bd 4b21 b03d
00000030: 1401 52bd 3904 8cbd 4bd5 d93d 16a8 093d
00000040: 83e9 183d 2d82 553d 3ebb 69bd 8659 09bc
00000050: 5d89 ea3d ef13 5a3d adec a83c 4521 9abd
00000060: 25b5 943b cefd 4a3d 88cf 0f3c 57f3 5d3c
00000070: 8860 ba3d afb4 d23d
